baseline_encoder.pt (torch, 96343 bytes, 6 tensors)

conv1.weight f4 [16, 3, 3, 3]
00000000: a4b3 11bd deb2 90bd 35b3 f6bd 07b3 0c3e
00000010: f58f a63d f88f bf3c bc0d 913c 4e3c 8ebc
00000020: 29ce 453e a7ab 2b3d 1dc2 033e 4622 63bd
00000030: 5e1b f1bd 4685 3d3d cd8c 453e e01e c2bd
00000040: fd34 20bd bf07 c0bd c49c 463e a45f 6cbd
00000050: c8db 473e 99c0 933d adaa 183e b14e 653d
00000060: 9c73 b53d 11e5 edbd e1aa 27bd 8515 e139
00000070: f265 8abc 7786 3e3e 3998 1fbe 3ffc 7f3d
00000080: 22c1 17bd b656 d8bd 126c 01be 5bb4 11be
00000090: 4c3a 4cbe 6225 25be a337 533e 6633 22be
000000a0: a6a4 bc3d 02aa 1bbe 9e88 b13c e112 b1bc
000000b0: 681e c53d 52dc 0d3d 7eb1 863d b7f0 113e
000000c0: 1677 333d c253 813d c840 d0bd 4271 6dbd
000000d0: d155 243e 06c9 e53d a1ad b0bd f6f5 c3bd
000000e0: 2a10 da3c 2395 f3bc 6d97 b6bd 728f f6bc
000000f0: cc35 0cbe 47e4 bc3d a3de 01be d2e8 7b3d
00000100: cb5a 753d 468d 1d3e d070 2b3e 89f5 8abd
00000110: 5630 bc3d 2c14 883d 4825 f4bd 01de 69bd
00000120: 947b 8ebd 70d0 adbd 417d d8bd d1d0 3f3e
00000130: cfc4 7abd d6fb 81bd a809 973d 833d f7bd
00000140: 2416 1b3e 31a0 8cbd 18ba 4ebd 54a6 bdbd
00000150: 4979 b23c 536a cf3c ddf7 0abe 3a40 643e
00000160: 8dd0 553d 56f8 62bb 4630 d23d 2188 bf3d
00000170: 6101 8abd 0c77 5d3e d7da 8a3d 610b 8dbd
00000180: 019c b3bd c64a 4cbc 771c 58be 159f a63d
00000190: 675d 503d 08df 33bc 2079 ac3d fb02 293d
000001a0: 6f03 60be 9578 173e 7e1a 413d 91e8 1bbe
000001b0: 5796 a93d b57d 273e 6e1a 9fbd 6adc 753c
000001c0: 3aa0 c4bc cb39 ecbd 2e42 f03d a51c 253c
000001d0: 631e 303e ca3d 3f3e 6c62 333e 56fe 283e
000001e0: e3bf a13c 2f5d 773d c325 143e 041c 073d
000001f0: f3a3 ea3d 5145 06be 12b0 473e 23fe bbbd
00000200: 90b2 a739 dce8 cabd 8b13 083d 3447 0dbe
00000210: 883d 9dbd 318c c3bd 7d16 eabd c235 5ebd
00000220: 38dd e23d 0d03 ab3d 31fd 07be ad0e 313e
00000230: 11e2 3b3b 346e e63c 477a 4d3e 7e53 02be
00000240: 7f9e fcbd 3ad3 94bd acc8 403e f5b4 18be
00000250: 9386 aabd 09c7 453d e9ab 10be 1521 8abd
00000260: 9bfa 603d bf6c 033e 8f2f c93d 2615 38bd
00000270: 01c7 033e cd34 253e 2e79 a93c 9f26 24be
00000280: ad8b 2dbe b88a 493e e3f4 b6bb 10a7 49bd
00000290: 21ab f23d a8d1 18bd 72eb 5b3d 9c8f 063e
000002a0: 0171 92bd 78c5 c1bd f803 1abe 686c 383e
000002b0: a7e9 04be f71b 493e fc3c 13be 8ae4 25bd
000002c0: 016e 253e 0482 c33a ede5 143e b789 073e
000002d0: 41ae d6bc 606d da3d ef35 393e 1a18 5d3e
000002e0: 202e f03c 5b57 07bd 8089 c2bd be67 44bc
000002f0: 1973 623d 847a a2bb f1d2 01be fe31 d5bd
00000300: 611b 03be 474a 93bd 2824 40be 8e67 bcbd
00000310: e74e 2fbe a863 3cbd 493c e6bd cd49 113e
00000320: 7952 133e 095e 08bd a6d9 de3d 81bc e9bd
00000330: 6236 863d d237 b63d dab0 a3bd 9bf3 2e3e
00000340: 09cb 46bd 7d63 c4bd 75af b8bd b909 38be
00000350: c228 073e 7d96 34be 63e1 dcbd 051e 093e
00000360: 6166 283d 8546 f83c 5b03 223d 9c9d 393d
00000370: abe5 5e3d 450e 48ba e4bb 263e 2fb0 ff3d
00000380: db0f 8f3d 21ce 203e ad44 213d 8eef 263c
00000390: 64db cebd 78e0 aa3d 42b4 61bd ace8 473e
000003a0: 0fb9 07bd 437a 503e d66e 99bd a543 2c3e
000003b0: 8063 c13d 7280 2ebd f46c 0b3d 3dc6 e1bd
000003c0: 520e 0d3e 47e7 ac3d 0be6 b1bc 2f4e 8b3d
000003d0: bbf6 d13d e6ba 0d3d 5122 393e 674b be3b
000003e0: c703 e53c a9eb 0f3e a328 7abd b703 1c3e
000003f0: aa47 e03d 5e7a 443e 274a 1bbe fbc2 b73d
-0.03557171 -0.07065366 -0.120459 0.13740169 0.081329264 0.02338408 0.017706744 -0.01736274
0.19316925 0.041911747 0.12867017 -0.055452608 -0.11772798 0.046269678 0.19291992 -0.09478545
-0.039113034 -0.093764775 0.19395739 -0.057708398 0.19517434 0.072144695 0.14908858 0.05598325
0.08859941 -0.116159566 -0.040934447 0.00042931378 -0.016894314 0.18605982 -0.15585412 0.06249642
-0.03704942 -0.10563414 -0.12638882 -0.14228956 -0.19944113 -0.16127542 0.20626692 -0.1583992
0.09211092 -0.15201572 0.02167159 -0.021615447 0.0962494 0.034633942 0.06576823 0.14251982
0.04381474 0.06314804 -0.10168606 -0.05796934 0.16048361 0.11219983 -0.08626867 -0.09568398
0.026619036 -0.0297342 -0.08915601 -0.030097697 -0.13692397 0.09223228 -0.12682585 0.06150133
0.05990104 0.15385923 0.16742253 -0.06785113 0.09188907 0.066444725 -0.11921173 -0.057096485
-0.069571644 -0.08487022 -0.10570765 0.18732001 -0.061222848 -0.06346862 0.07374889 -0.12072279
0.15145165 -0.068664916 -0.05047044 -0.0926024 0.021786349 0.025319254 -0.13571115 0.22290125
0.052200843 -0.0034632883 0.10263114 0.093521364 -0.06738544 0.21627444 0.06780022 -0.06886936
-0.0876999 -0.012468999 -0.21104608 0.08135811 0.050870325 -0.010978468 0.0842154 0.041262608
-0.2187631 0.14792092 0.047144406 -0.15225436 0.08280628 0.16356547 -0.07768713 0.015006164
-0.024002183 -0.11534461 0.11731373 0.01007763 0.17199092 0.18675914 0.17518014 0.16503271
0.019744819 0.0603916 0.1446753 0.032985702 0.11457052 -0.1311238 0.19500759 -0.09179332
0.00031985762 -0.09907696 0.033221763 -0.13796693 -0.07677752 -0.09548224 -0.114300705 -0.054250486
0.110773504 0.08350191 -0.13280179 0.17290755 0.0028668682 0.02812872 0.20066176 -0.12727162
-0.12334918 -0.07266851 0.1882655 -0.1491278 -0.08326449 0.048285518 -0.14128079 -0.06744591
0.054926496 0.12834452 0.09823524 -0.044942044 0.12868883 0.16133423 0.020687666 -0.16030358
-0.16947813 0.19681823 -0.005583392 -0.04923159 0.118490465 -0.03730932 0.053691335 0.1314072
-0.0715046 -0.09461492 -0.15040576 0.18010104 -0.12979756 0.19639574 -0.14378732 -0.040501155
0.16155244 0.0014916067 0.14540835 0.13236128 -0.026206138 0.10665393 0.1808698 0.21591225
0.02931887 -0.033042293 -0.09498882 -0.011987625 0.055285547 -0.0049584527 -0.12678124 -0.10409926
-0.12803413 -0.07191902 -0.18763793 -0.09199439 -0.17119943 -0.045993477 -0.11241967 0.14188309
0.1438693 -0.033292804 0.10881357 -0.114129074 0.065533414 0.08897366 -0.07992716 0.17085116
-0.048533473 -0.095892884 -0.09017841 -0.17972459 0.13199142 -0.17635532 -0.107851766 0.13390358
0.04111326 0.030307064 0.03955398 0.045316324 0.054418247 -0.0007631521 0.16282612 0.12484776
0.06985446 0.15703632 0.039372135 0.01018895 -0.10100439 0.08343595 -0.055103548 0.19522351
-0.03313547 0.20359139 -0.074918434 0.1682268 0.09442806 -0.042602964 0.034039453 -0.11024139
0.13774994 0.0844255 -0.021716138 0.06802022 0.10252138 0.03460207 0.18079497 0.0058073285
0.027955903 0.14054741 -0.06107391 0.15235792 0.10951169 0.19187304 -0.15165006 0.089727364

conv1.bias f4 [16]
00000000: 7daf 4d3d a724 f53d bb5f 513e 4157 6bbd
00000010: 6697 e43c 3452 323e 5598 debd c459 21bd
00000020: a834 b9bc 3965 e2bc f471 893d 78a6 16be
00000030: e31f a9bd 9732 5ebc b308 bcbc 7c04 483e
0.050216187 0.119698815 0.20446675 -0.05745626 0.027904224 0.1741417 -0.10868899 -0.039392248
-0.022608116 -0.027636157 0.06711188 -0.1471194 -0.08258035 -0.013561866 -0.022953367 0.1953296

conv2.weight f4 [32, 16, 3, 3]
00000000: e629 1cbd ef61 cabc 75f1 423b d83f 57bc
00000010: be85 303c 9c82 cd3c 3c78 8b3d e0db 65bd
00000020: a1b2 6d3d 2e7a ffbd 1665 b03d 5176 f7bb
00000030: 24e3 62be 1507 c03c 6e26 1cbe ce2d 42be
00000040: baaf 733d db58 e2bd 933a 61bc 33ad 56bd
00000050: e452 ac3c 7621 b4bc 4ee1 dabc a801 b6bd
00000060: 97a6 70bd 4797 2cbd f061 5f3c 2129 28be
00000070: d4b9 44be 8d5f 2fbd a896 16be 525c 9bbe
00000080: f70e 8cbd 0f2d 28be 3bf1 64be 410e 013d
00000090: 7da5 46bc f70c 61bd 896b e93d 15a3 4f3d
000000a0: 7a3b a03d f922 aa3d fbf7 823d 4d70 363d
000000b0: 76c3 adbb 72ad c1bc b217 863d a22f 59bd
000000c0: 8867 84bd 339f 8d3d 0cfd bb3d ed50 cebc
000000d0: 4b88 b03d baf9 67bc 8897 8bba 983b a53d
000000e0: d01e ac3d 5942 0bbd af1b de3c ba52 793d
000000f0: 0c22 8c3d 30ee b63d b5cd b13d 0b2d 64bd
00000100: 07c5 9a3d 24b7 a0bd 9579 2e3c d867 ff3c
00000110: 9433 21bd c55d a13d 0660 07bd 889a 8f3c
00000120: 8273 8a3d 4cea 55bd 8d60 853d cbee ecbb
00000130: 6695 1fbd 56be 753d 0a4d 383c 4933 c83c
00000140: e925 9f3d 6c4f 4d3b 91b9 d73d 43d3 e53d
00000150: 7276 ce3d 4f92 383d 0a0c 0a3e 1fcb 38bc
00000160: 21f0 1f3e 0c31 cf3d 11fb d73c ae52 d33d
00000170: 29ee 9dbc a434 563d 1d92 203d f1a6 f73c
00000180: 00d9 f83c e907 46bd 1b00 7cbc 9819 76bd
00000190: 107b 45bd 8d3e 8b3d 92d8 603c 3c6f 48bd
000001a0: 4e15 5f3d fb36 04bd 7712 a3bb 5e72 d2ba
000001b0: 3da4 6dbd d21a 66bc d0d3 a33d db56 363d
000001c0: 8809 bb3d 4f72 d33c 81ba 68bc d936 a93d
000001d0: e801 313d 95d8 30bd 0c3e 20bc 761d 49ba
000001e0: 4bf4 893c a371 ba3c 1c0c 8abd 1cee f93c
000001f0: d92a 6fbd 76df 193d 691f a13d c8f7 643d
00000200: c5c6 993c 2235 09bd 4abe 0a3c 01c6 a63d
00000210: bc95 33ba 881b b63d db74 0bbd a96d a8bd
00000220: d960 3f3d 5e1d 3cbd 141f f2bc ef6b 103d
00000230: 3573 9bbd d58f 9a3d 1993 85bd 3435 45bd
00000240: c45c 3fbb 20a2 8a3d db2e 04bc d896 283c
00000250: ade4 de3a d8c2 b5b9 2e3e 623d e21c 5b3d
00000260: e75a 9c3d cc0d d73c 8a2c c1bd d208 78bd
00000270: 18ba d7bd 9cf2 e8bd d28e 98bd cdb0 8dbd
00000280: 7bad 5abe 162a 3cbe 716c 0ebe ed9b 83bd
00000290: 63b0 44bd 7e82 a8bd 55fe fcbd 68cf 06bd
000002a0: 3371 c6bd ddf0 a0bc dc9b a7bc 9564 4cbe
000002b0: b283 11be 49f7 8839 5e20 a4be 6069 17be
000002c0: af43 11bc 3ba0 2abe 50ae 09be ca22 983d
000002d0: f17b a13d f0b8 b3bb 2e86 5cbd d2ba f93c
000002e0: ac27 483d b495 f73b d233 273d 3b29 753d
000002f0: 81b8 193d 1b29 953d 8c8f 4fbd 5fb7 263d
00000300: 6ff4 973d a6fb 0f3d 6e82 1a3d 1432 a93d
00000310: a49b ab3b 108e 96bd 92a4 a4bc 3b93 423d
00000320: cb75 933c f407 3d3d 606d 003d 37af 153d
00000330: 1e3d 35bd eab5 ec3c 87c5 b73d 3b58 65bd
00000340: 2a1d 083d f149 75bd c01c 3e3d 4437 8fbd
00000350: 94f3 a0bd 7704 9fbd a910 06bd d84f 3abc
00000360: 7f33 c2bc 47df 493d 8a3a 7b3d a489 05bd
00000370: 7b1b 61bd 8b3e 973d cde2 1dbd 6c1a f2bc
00000380: f171 c23d 01de 233e b0b3 9ebb 306c 623d
00000390: 3c9d 16bd 91fb 833d 0e18 183d 2144 993d
000003a0: 4a07 843d aae8 2e3c c21f 10bd 5c45 9d3d
000003b0: 259a a33d 722e 953c 6d82 16bd c662 993c
000003c0: c776 9bbc a14c ae3b 52cf 713d 4ddc 883d
000003d0: 1513 01bd 342c 943c 40bd 81bc 11c0 983c
000003e0: c171 8c3c 347f 85bd 1d54 11bd 6746 413d
000003f0: 88c5 6c3d d24e a23d 6d1f 67bd 9cd6 a4bc
-0.038125895 -0.024704902 0.002974597 -0.01313778 0.010774074 0.025086693 0.06810042 -0.056117892
0.058031682 -0.12474476 0.086130306 -0.007551946 -0.2215696 0.023440877 -0.15249035 -0.18962786
0.059493758 -0.11052104 -0.013746875 -0.05241127 0.02103562 -0.021988612 -0.026718762 -0.08887035
-0.058752622 -0.042136457 0.01363419 -0.1642194 -0.19211513 -0.042815734 -0.14705908 -0.30343872
-0.06838792 -0.16423438 -0.22357647 0.031507734 -0.012124416 -0.054944005 0.11397464 0.050692637
0.07823844 0.08307452 0.06394955 0.044540692 -0.005302842 -0.023642275 0.06547488 -0.05302394
-0.064650595 0.069151305 0.09179124 -0.025185073 0.08619746 -0.014158661 -0.0010650018 0.08068007
0.084043145 -0.03399882 0.02711281 0.06086991 0.068424314 0.089321494 0.08681814 -0.05570702
0.07557111 -0.07847431 0.010649105 0.031177446 -0.03935583 0.07879213 -0.03305056 0.01752974
0.067603126 -0.052225396 0.06512556 -0.007230615 -0.038960837 0.05999597 0.011248836 0.024438517
0.07770903 0.0031327857 0.10533441 0.112219356 0.100811854 0.045061406 0.13481155 -0.011278897
0.15618946 0.10116777 0.026364835 0.10318504 -0.019278603 0.052296296 0.039201844 0.030230971
0.030376911 -0.048347387 -0.0153808845 -0.060083 -0.048213065 0.0679904 0.013723509 -0.048934206
0.054463677 -0.032278996 -0.0049765664 -0.0016055813 -0.058017958 -0.01404448 0.079993844 0.044516426
0.09132677 0.025811343 -0.014204622 0.082624145 0.04321471 -0.0431753 -0.009780418 -0.00076719315
0.01684012 0.022759264 -0.06740591 0.030509047 -0.058390472 0.037566625 0.07867319 0.055900365
0.018771539 -0.033497937 0.00846822 0.08143235 -0.000685062 0.0889197 -0.03404699 -0.08224041
0.04672322 -0.045926444 -0.029555835 0.035259183 -0.07590333 0.07546965 -0.06522197 -0.04814644
-0.002919958 0.06769204 -0.008067812 0.01028987 0.0017005407 -0.0003466818 0.05523508 0.05349434
0.07634526 0.026251696 -0.09432323 -0.060555287 -0.105335414 -0.11374399 -0.07449116 -0.06918488
-0.2135524 -0.1837543 -0.13908555 -0.06426225 -0.048019778 -0.082280144 -0.123531975 -0.03291264
-0.0968956 -0.019646103 -0.020460062 -0.19960244 -0.14210394 0.00026124183 -0.32055944 -0.14786291
-0.008866235 -0.16662686 -0.13445401 0.074285105 0.07884968 -0.0054846928 -0.0538389 0.03048459
0.04886596 0.007555688 0.040820904 0.059853774 0.037529472 0.07283231 -0.050674006 0.04070222
0.07419669 0.0351521 0.037722044 0.08261505 0.0052370597 -0.07351315 -0.020098004 0.04750369
0.018000504 0.046150163 0.031354308 0.03654405 -0.04424774 0.028895337 0.08973222 -0.055992346
0.033230938 -0.05988497 0.046414137 -0.06992963 -0.07858959 -0.077645235 -0.032730732 -0.011371575
-0.023706196 0.0492852 0.061335124 -0.032601967 -0.054957848 0.07384976 -0.038546372 -0.029553615
0.09494389 0.16002657 -0.0048431978 0.055278957 -0.036771044 0.06444467 0.037132315 0.07483698
0.06446703 0.010675589 -0.035186537 0.07679245 0.07988385 0.018210623 -0.036745477 0.018723857
-0.018977536 0.0053191935 0.059035607 0.06682644 -0.03151234 0.018087484 -0.015837312 0.018646272
0.017144086 -0.06518403 -0.035480607 0.04718628 0.057805568 0.0792519 -0.056426454 -0.020121865

conv2.bias f4 [32]
00000000: 0633 6d3d c6e3 903d d562 9abd 1d7c c43c
00000010: 158f b7bc aa63 a83d 3c93 863d e4ab c9bd
00000020: e46b c1bb ba08 31bd a800 93bc 77fe ac3c
00000030: 17f9 3abd 705f 763d f17d be3b 96d3 62bc
00000040: 25bb 8ebc 84c6 e8bc eaeb 5dbd cf21 20bd
00000050: bfcc 50bd 1efa d6bc 010a 9bbd 66ea 983b
00000060: a13c 4dbd 8f92 b23c 9626 86bd 9697 293d
00000070: 5d63 803d ef78 86bd 17db cfbc b2f9 243d
0.057909988 0.07074694 -0.07538382 0.023984963 -0.022407094 0.082221344 0.065710515 -0.09847239
-0.005902754 -0.043221213 -0.017944649 0.021117432 -0.045647707 0.06014961 0.005813353 -0.013844391
-0.017423222 -0.028414972 -0.054180063 -0.039094742 -0.05097651 -0.026242312 -0.075702675 0.0046666143
-0.05010665 0.0217984 -0.065503284 0.04140433 0.06268952 -0.06566035 -0.025373025 0.04027719

conv3.weight f4 [64, 32, 3, 3]
00000000: b5e3 50bd cdaf 5bbc 07d1 b23c 5a10 7f3c
00000010: 5a37 843d 215c 1e3d cd42 373a 40d6 e43c
00000020: 3269 a0bb a434 89bc 1e5c 0b3c d3d5 b23c
00000030: add3 4ebd 8081 b13c 70d1 033b 1e77 28bd
00000040: da40 03bd 0d23 983d 9363 413c f97a d5bc
00000050: a963 19bd 92d1 a8bb fbbd c6bc 9b0d 953d
00000060: e2e9 233b 21f4 7d3d 6fb0 073d 9bb5 c3bc
00000070: f861 033d e131 debb 6006 02bd 1f0b 16bd
00000080: 15c7 1f3d 3584 0e3c 5921 743d b7d4 403d
00000090: 3074 8fbd a8bc c9bd bc5c b3bd a9fc 373c
000000a0: ceaf 82bc 9c94 673c f995 0d3d 31dd 48bd
000000b0: c400 303d 4bc9 21bd fa03 5bbc 7504 93bd
000000c0: 92bc 883c e0a1 e93c 8dbd 203d 0516 fe3c
000000d0: 041b 4ebd fdf7 9c3d 704a 4e3c 3d79 cf3b
000000e0: d711 31bd 91e3 3b3d d0f1 7fbc fdb1 30bb
000000f0: 4cc6 95bb e799 bd3c 339f 33bc 32d8 16bd
00000100: 710c 9fbb a991 443d 182c 4b3d d521 1abc
00000110: 83f1 2f3c b3ff ea3c 1004 2abc 37d7 60bd
00000120: 49b7 b23c 8e1d c73c c40d 9dbd c928 e139
00000130: b593 2e3d f6ab 8e3b 6f3e fc3c 8add 193c
00000140: 2970 7fbc 3e7f 9dbd 663b 85bd 4e82 a53d
00000150: 857e 29be 2e30 62bc 33a6 c73d 190f 8bbd
00000160: 08c8 debc a072 973d be7f abbb 40e9 15bd
00000170: f3d7 3ebd 73fe 86bd ec93 45ba 743c 873d
00000180: 5300 0b3d 0841 613d 5c7f 843d b746 3cbd
00000190: e051 49bd a0c5 273c d143 1c3c 52a7 8aba
000001a0: fec0 8e3d 68b8 f93c f961 263d da96 27bc
000001b0: 8a4d f13c c765 34bd b91d adbc cefb 85bd
000001c0: b053 2f3d bb57 913c 9733 853c 65da 463d
000001d0: 85e7 073d b182 c03c 88b3 563c 21e9 87bc
000001e0: 263c 2fbd 044a 4f3d 2d53 dfbc c32b 8cbc
000001f0: 0f50 a53d 5dd7 133d 427c 61bc 5629 1ebd
00000200: e53b 1a3d cd50 f33b a1af 2dbd c7b8 513d
00000210: 50de 8bbc e92b 8b3d 5692 833d 03d6 28bd
00000220: fe1a 01be 2f40 62bd 3ddd 7bbd 94a4 a3bd
00000230: 8a61 2f3d 8393 1a3d 240b aebd fbdb 063e
00000240: 7f47 663c af48 8fbd a3f7 253d 3821 04bd
00000250: 1452 f63c 2573 e03c 18b5 173d fb0a bdbc
00000260: 27d6 b53c 3ce3 2e3d 0005 33bd 3e03 1e3d
00000270: 1d9c 69bc a71c 543c b53a 463d be9c 133d
00000280: fb45 f33c ebfe a73d f0c7 563d ade4 0a3d
00000290: d59d 3abd f1b8 f23c cd12 aebc 62ea 0f3d
000002a0: aace c73c 798f 16bd 3946 d33d bb5d 80bd
000002b0: 6c83 22bd 0b3f 9bbb 12a7 c9bd 36ec 8b3c
000002c0: f6fe a2be ac33 cbbb 7675 083e 351e c63d
000002d0: f542 5b3c 7b1e 22bd ec5c a63a e115 543d
000002e0: 50ce db3b 1527 0fbd 4206 eabc f67e 313d
000002f0: fce0 a4bc e646 e73b f442 5abd 83e5 0b3d
00000300: 89df 31bd 1692 3e3d 32fa e9bc c7a1 3e3d
00000310: 810a 19bc 59f1 423d ebcc c63b 36b3 82bd
00000320: 9700 37bd 942b c0bc b817 b33c 0df1 1c3d
00000330: b448 29bd 334e 513d a839 ecbb 2480 a13d
00000340: fe7a 203d 7dc8 2bbc 4d17 95bd ebc8 ccbd
00000350: f27d d23c ab7e 64bd 37ac 8e3d 76e8 093e
00000360: 0974 4ebd e7c1 7bbd e30e f1bc 3a6c efbc
00000370: b1b6 1abd 0eba 3d3d d2da 50bd e5df 7b3d
00000380: eb11 673d 83fb c9bb 5b2d 7bbd ca79 0c3b
00000390: 8d8c c63b 5890 a63c b3a5 1d3d 2e59 bb3c
000003a0: 430b 093c 9609 1d3d df46 5bbc 4c7c 2ebd
000003b0: 4c97 a7bc 4acd 0f3d 7ada 9d3d da06 243d
000003c0: 85b2 72bd 30c8 8d3d c0bd a23d 6369 d7bc
000003d0: f862 47bd f85a 283d f988 3dbd 3e07 3fbb
000003e0: f7fc 36bd a755 223d 414c 183d d15d b13c
000003f0: c014 a33c 7fe7 8b3c 5c2a 4f3d ea7f 253c
-0.05099841 -0.013408613 0.021828188 0.015567863 0.0645587 0.03866208 0.000699085 0.027934194
-0.0048953528 -0.016748734 0.008505849 0.021830475 -0.05049484 0.021668196 0.0020113848 -0.041129224
-0.03204427 0.074285604 0.0118035255 -0.026059614 -0.03744856 -0.005151936 -0.024260512 0.07277986
0.0025011231 0.062000398 0.033127245 -0.023890307 0.032075852 -0.0067808484 -0.03174436 -0.0366317
0.03900822 0.008698513 0.059602115 0.04707786 -0.07004583 -0.098504364 -0.08757922 0.0112296725
-0.01595297 0.014134552 0.034566853 -0.04903907 0.04296948 -0.03949861 -0.013367647 -0.071785845
0.01669148 0.02851957 0.03924327 0.03101636 -0.050318733 0.076644875 0.0125909895 0.0063315914
-0.043229904 0.04587132 -0.015621617 -0.0026961558 -0.004570758 0.023144675 -0.010963249 -0.036827274
-0.004853778 0.047990475 0.049602598 -0.00940748 0.010738733 0.02868638 -0.010376945 -0.054892745
0.021815913 0.024306085 -0.07668641 0.00042945732 0.042621333 0.0043539954 0.03079149 0.009391198
-0.015590706 -0.07690285 -0.0650547 0.08081494 -0.1655217 -0.013805432 0.09748497 -0.06789989
-0.027194992 0.0739491 -0.005233734 -0.036599398 -0.046592664 -0.06591501 -0.00075369957 0.066033274
0.033935856 0.05499366 0.064696044 -0.045965876 -0.049150348 0.010239989 0.009537653 -0.001057843
0.06970404 0.03048344 0.040620778 -0.010228837 0.029455919 -0.044042375 -0.021132337 -0.065421686
0.04280442 0.017742028 0.016259952 0.04854812 0.03317978 0.023499819 0.013104327 -0.016590657
-0.04278197 0.050607696 -0.027261341 -0.017110711 0.080719106 0.03609406 -0.0137625355 -0.03861364
0.037654776 0.0074254037 -0.04240382 0.051201608 -0.01707378 0.067954846 0.06424396 -0.041219722
-0.12607953 -0.05523699 -0.061490286 -0.07990375 0.04281763 0.037738334 -0.08498219 0.13169853
0.014055132 -0.06996285 0.040519368 -0.032258242 0.030068435 0.027398655 0.03703794 -0.023076525
0.022196842 0.042697176 -0.04370594 0.03857731 -0.014258412 0.012946284 0.04839583 0.036038153
0.029696455 0.082029186 0.05243677 0.03390949 -0.045560677 0.029629203 -0.0212492 0.035135634
0.024390537 -0.03675792 0.10316128 -0.06267878 -0.039676115 -0.00473774 -0.09846319 0.017080408
-0.31835145 -0.006201228 0.13326058 0.0967373 0.013382663 -0.03957985 0.0012692488 0.051778678
0.006707944 -0.03494938 -0.028567437 0.04333397 -0.020126812 0.0070580123 -0.053286508 0.034154426
-0.04342607 0.046526037 -0.028561685 0.046541 -0.009340883 0.04759345 0.0060669086 -0.06381838
-0.044678297 -0.02345828 0.021861896 0.03831582 -0.0413291 0.051099967 -0.0072090216 0.07885769
0.039179794 -0.010484812 -0.07279835 -0.099992596 0.025694821 -0.055784862 0.06966441 0.13467583
-0.05040363 -0.061464217 -0.029426044 -0.029226411 -0.037771884 0.046320014 -0.050989933 0.06149282
0.056413572 -0.0061640157 -0.06132255 0.0021434897 0.0060592354 0.0203325 0.0384881 0.022869673
0.008364501 0.03833922 -0.013383596 -0.042599007 -0.020457886 0.03510789 0.07707687 0.040045597
-0.05925228 0.06922948 0.07946348 -0.02629537 -0.04867837 0.04110238 -0.046273205 -0.0029148604
-0.04467484 0.039632466 0.037182096 0.02165118 0.019907355 0.01707816 0.050577506 0.010101298

conv3.bias f4 [64]
00000000: d3aa 113d 027d dfbc 26d2 53bc b6a0 aabb
00000010: c08c 803d 90b9 f63c 5cc9 d03c 1f55 bdbb
00000020: b860 56bd 0151 783d d94b 68bb 7217 1abe
00000030: 8e6d 123c 450a 893d fecf c6bb 247f bc3d
00000040: 3beb 2dbd 43eb 04be 56db a63c 9aec b5bd
00000050: 50aa 3f3d af1b 453d 2006 18bd 2dba 1dbd
00000060: 5c9a 86bd e6a9 8dbc c911 dc3d 364a e23c
00000070: c859 cc3d 0e96 253d 63fa 823c 552c 183d
00000080: fb51 4d3c 95f5 8dbc ffde c63c 1751 343e
00000090: dfad d6bc 1080 92bc ab8c 6abd 51fa 4ebc
000000a0: df8a 103d 3211 8f3d c84f cdbc 1816 f63c
000000b0: 1200 1b3d 8e51 0a3e 4724 99bc 8fbe 31bd
000000c0: c80c eb3d 78a5 b2ba 9e70 513d 8e4a 10bd
000000d0: 2f52 253d 9bf7 063d 28ca bc3d a65e 9c3c
000000e0: 0cda 70bd 64e8 a63d cf57 18bd b678 9f3d
000000f0: a4c3 823d e76a 863d a43c 053d ad54 07bd
0.0355633 -0.027281288 -0.012928521 -0.0052071465 0.06276846 0.03011778 0.02548664 -0.0057779695
-0.052338332 0.060624126 -0.00354456 -0.15048006 0.008937253 0.06691412 -0.006067275 0.09203938
-0.04246066 -0.1298037 0.02036826 -0.08883019 0.046793282 0.048122104 -0.037115216 -0.03850763
-0.065724105 -0.017292928 0.1074558 0.027623277 0.09978062 0.040426306 0.015988534 0.037151653
0.012531753 -0.017329017 0.024276255 0.17609058 -0.026205955 -0.01788333 -0.057263058 -0.012632922
0.035288688 0.069857016 -0.025062457 0.030039832 0.037841864 0.13507673 -0.018694056 -0.04339462
0.11477047 -0.0013629636 0.05113279 -0.03522735 0.04036158 0.03295098 0.09218246 0.0190881
-0.058801696 0.08149794 -0.037193116 0.07786696 0.06384972 0.06563359 0.032528535 -0.033039737
