baseline_decoder.pt (torch, 43863 bytes, 6 tensors)

deconv1.weight f4 [64, 32, 2, 2]
0.017514246 -0.03687567 -0.061072335 0.041567985 0.02677107 -0.0961846 -0.042832695 -0.07617556
-0.059492048 -0.004843626 -0.05569925 -0.081394374 -0.08742576 0.01553391 -0.01284298 -0.08149539
-0.04712264 -0.066352606 -0.0066546267 -0.089341916 0.002933685 0.009602813 0.017651325 0.15456517
-0.14407335 -0.16092373 -0.063142255 -0.0595608 0.049438 -0.024861788 -0.09486297 0.013719287
-0.02630112 -0.004699878 0.06513585 0.1280196 0.046145797 0.034551494 -0.0026972403 0.052870203
-0.008237451 -0.04478649 -0.010810179 -0.032459058 0.0091829365 -0.00548999 -0.061484627 -0.053204555
0.03779388 -0.09117779 -0.030148037 0.04893646 0.05031984 0.023216087 -0.035934243 -0.025394376
-0.013088543 -0.08135918 -0.08953048 -0.07549265 -0.055483725 -0.0059975395 0.016902398 -0.010878709
0.06458055 -0.02097889 0.065576896 -0.09199599 -0.025790967 -0.011999716 -0.09742148 0.04676233
-0.0025010884 0.054213256 0.061270043 0.05692143 -0.07753669 0.00041223754 -0.08295681 -0.053321686
0.07045514 -0.035913877 -0.02325048 -0.042164925 -0.05433689 -0.08403517 -0.011447626 0.03918112
-0.058966454 -0.009555614 -0.014239909 0.06508148 0.05755668 -0.072783634 0.015814584 -0.04912077
0.022481441 -0.0994424 -0.017464858 -0.042369716 -0.0843281 -0.07252319 0.06640034 -0.007943986
-0.06326348 -0.020515135 -0.072044276 -0.113599904 -0.051693417 -0.07806036 -0.06974533 0.0014379343
0.048754737 -0.046654392 -0.05679542 0.09562161 -0.08506474 0.037277885 0.035259943 0.08653455
0.08145518 0.000666864 0.05180196 -0.0965937 -0.040835973 0.057644483 -0.07083342 -0.017060883
-0.073964775 0.056380842 0.0038672152 0.040883098 0.047804244 -0.053476643 0.04991433 -0.080964275
-0.03187914 -0.02138574 -0.09645704 -0.10000465 0.021567563 0.075426415 0.075492084 0.074337795
0.08430492 -0.1365451 -0.07344579 -0.008709237 0.09025216 -0.04605609 -0.049359128 0.07555478
-0.014297945 0.025316298 0.04633645 -0.09491213 0.05341852 -0.017720707 -0.08751661 0.018315434
0.04959216 -0.038491234 -0.034717035 -0.0484624 0.088867255 0.041809037 -0.08620974 -0.038659964
-0.04715724 0.052864987 0.027873611 -0.042023826 0.04016042 0.019893644 -0.06314586 -0.04148268
0.013571295 0.045254134 0.069432884 -0.055546507 -0.06594738 0.055635452 -0.10311599 0.010396673
-0.014769314 -0.016543703 -0.088898845 0.04232954 0.06697392 -0.066942476 -0.07496133 -0.07942744
-0.15311556 -0.03843759 -0.04101619 -0.03839659 -0.05070856 -0.09519604 -0.08313561 -0.07830804
0.01813063 0.10272044 0.06693427 0.04412214 -0.009336979 -0.0978506 0.06395852 0.07078618
-0.0027534298 0.051084023 -0.036745656 0.071795985 0.07147512 -0.07211872 0.03509066 0.091671176
0.08447831 0.06720724 -0.024607671 -0.012313392 0.05962474 -0.004523827 0.04393675 -0.018657496
0.06213748 0.059714433 0.05212684 -0.04568902 -0.012364003 0.03094985 -0.06976409 -0.064160846
-0.05143757 0.05522413 0.033320505 0.059873722 -0.07770491 -0.13019252 -0.020501828 -0.1228092
-0.023476863 0.028889269 -0.046923865 0.069277726 -0.09777147 0.08170067 -0.012566268 0.12686016
-0.0064978544 0.038530204 0.034329154 0.063787125 -0.004485553 0.02552915 -0.063974716 0.075568706
00000000: 097a 8f3c f10a 17bd fc26 7abd 3143 2a3d
00000010: 014f db3c 6efc c4bd 5671 2fbd ef01 9cbd
00000020: efad 73bd 48b7 9ebb e624 64bd 18b2 a6bd
00000030: 470c b3bd f181 7e3c 5d6b 52bc 0ee7 a6bd
00000040: ab03 41bd e0e3 87bd 0e0f dabb e5f8 b6bd
00000050: 1143 403b 1e55 1d3c 8399 903c 5546 1e3e
00000060: f787 13be 31c9 24be ba50 81bd 07f6 73bd
00000070: 807f 4a3d f3aa cbbc 8447 c2bd dcc6 603c
00000080: 7275 d7bc 6f01 9abb f265 853d 9217 033e
00000090: 6003 3d3d de85 0d3d 2fc4 30bb 6d8e 583d
000000a0: 60f6 06bc 0a72 37bd 2d1d 31bc caf3 04bd
000000b0: 0774 163c 60e5 b3bb 4ed7 7bbd 05ed 59bd
000000c0: c1cd 1a3d 6cbb babd 04f9 f6bc 9971 483d
000000d0: 2d1c 4e3d aa2f be3c c92f 13bd de07 d0bc
000000e0: 5471 56bc a49f a6bd c25b b7bd e49b 9abd
000000f0: e742 63bd 0287 c4bb e676 8a3c 9d3c 32bc
00000100: cf42 843d ecdb abbc 2e4d 863d 6568 bcbd
00000110: 9447 d3bc 759a 44bc ea84 c7bd db89 3f3d
00000120: 4de9 23bb b80e 5e3d 4cf6 7a3d 7226 693d
00000130: 8ecb 9ebd 9621 d839 43e5 a9bd d767 5abd
00000140: c94a 903d 6e1a 13bd ca77 bebc 21b5 2cbd
00000150: 5c90 5ebd a21a acbd d38e 3bbc 627c 203d
00000160: cf86 71bd 268f 1cbc 824e 69bc 7049 853d
00000170: 8ec0 6b3d 960f 95bd 968d 813c dc32 49bd
00000180: 002b b83c 75a8 cbbd 7612 8fbc de8b 2dbd
00000190: 36b4 acbd 0a87 94bd e7fc 873d 7e27 02bc
000001a0: 4990 81bd 5b0f a8bc f38b 93bd 11a7 e8bd
000001b0: 7abc 53bd 1cde 9fbd a4d6 8ebd 1279 bc3a
000001c0: 0cb3 473d ad18 3fbd 50a2 68bd 43d5 c33d
000001d0: 6c36 aebd b2b0 183d bb6c 103d 0739 b13d
000001e0: f9d1 a63d 7cd0 2e3a 4b2e 543d ebd2 c5bd
000001f0: 9f43 27bd 9f1c 6c3d 1d11 91bd 44c3 8bbc
00000200: d87a 97bd 99ef 663d 1b71 7d3b 0975 273d
00000210: 62ce 433d 530a 5bbd f872 4c3d 99d0 a5bd
00000220: b393 02bd 2631 afbc 458b c5bd 3dcf ccbd
00000230: 75ae b03c 2a79 9a3d 989b 9a3d 6a3e 983d
00000240: 0fa8 ac3d 7bd2 0bbe bf6a 96bd 30b1 0ebc
00000250: 20d6 b83d 50a5 3cbd cc2c 4abd 77bc 9a3d
00000260: ee41 6abc 2064 cf3c 4acb 3d3d 4a61 c2bd
00000270: 61cd 5a3d 042b 91bc e93b b3bd 400a 963c
00000280: 2621 4b3d fca8 1dbd 7333 0ebd 8280 46bd
00000290: 0900 b63d f43f 2b3d bb8e b0bd e959 1ebd
000002a0: f327 41bd f588 583d 3357 e43c 2d21 2cbd
000002b0: 417f 243d fff7 a23c 9e52 81bd bee9 29bd
000002c0: 235a 5e3c 665c 393d d432 8e3d bc84 63bd
000002d0: 6c0f 87bd 00e2 633d 7a2e d3bd cf56 2a3c
000002e0: fefa 71bc a986 87bc 9910 b6bd bd61 2d3d
000002f0: 9f29 893d 2319 89bd 5385 99bd dbaa a2bd
00000300: 53ca 1cbe bc70 1dbd 9800 28bd be45 1dbd
00000310: c7b3 4fbd 24f6 c2bd 0143 aabd f75f a0bd
00000320: b086 943c 185f d23d d614 893d 6bb9 343d
00000330: 21fa 18bc e565 c8bd affc 823d 58f8 903d
00000340: e372 34bb 7b3d 513d 9d82 16bd c609 933d
00000350: 8c61 923d fbb2 93bd 39bb 0f3d 19be bb3d
00000360: f702 ad3d f3a3 893d 0796 c9bc 1cbe 49bc
00000370: 1239 743d 9d3c 94bb 06f7 333d 9bd7 98bc
00000380: df83 7e3d 1f97 743d f482 553d 6924 3bbd
00000390: 6392 4abc 8a8a fd3c 7ae0 8ebd c366 83bd
000003a0: 34b0 52bd b332 623d 157b 083d 263e 753d
000003b0: c023 9fbd 3051 05be 73f3 a7bc 6483 fbbd
000003c0: 8d52 c0bc 30a9 ec3c 3d33 40bd 7be1 8d3d
000003d0: 693c c8bd ae52 a73d c0e2 4dbc a1e7 013e
000003e0: f4eb d4bb d9d1 1d3d ba9c 0c3d d3a2 823d
000003f0: 8cfb 92bb 8222 d13c 2d05 83bd c4c3 9a3d

deconv1.bias f4 [32]
-0.04561734 -0.0033482674 -0.08175882 0.026376799 -0.051644955 0.09771418 0.037259746 0.005251058
0.020986686 -0.0562879 -0.10402207 0.057807356 -0.06400741 -0.09937216 0.002048428 -0.007854567
0.06524528 0.05586397 -0.02179692 0.020888671 0.09612363 0.0042623216 -0.055687565 -0.0047211195
-0.09144684 0.05009017 0.065458745 0.040740877 0.001819112 0.006413466 0.006427382 -0.008363467
00000000: 3fd9 3abd 9b6e 5bbb 2b71 a7bd 2814 d83c
00000010: a989 53bd 5f1e c83d ad9d 183d 1111 ac3b
00000020: 45ec ab3c 248e 66bd 8609 d5bd 68c7 6c3d
00000030: 5116 83bd a283 cbbd eb3e 063b 71b0 00bc
00000040: 519f 853d 9ed1 643d 748f b2bc b81e ab3c
00000050: 77dc c43d f2aa 8b3b a518 64bd 9fb3 9abb
00000060: 7b48 bbbd 5a2b 4d3d 3c0f 863d e8df 263d
00000070: 456f ee3a 0d28 d23b ca9c d23b ec06 09bc

deconv2.weight f4 [32, 16, 2, 2]
-0.043290325 0.02378264 0.021385074 0.0036353047 0.061210763 -0.076245725 0.07440603 0.15268025
-0.036894746 -0.057298675 -0.052062914 -0.016386954 -0.07867395 -0.032748308 -0.042129423 -0.06779823
0.012787326 0.084196046 0.05923529 -0.010152638 0.04274507 -0.11844073 -0.01009526 0.0016973166
0.026078567 0.118631 -0.048027586 -0.01411409 4.5222085e-05 0.06570265 -0.02486188 0.06571782
-0.07224964 0.04528308 0.110294014 0.16681202 0.020743903 0.09774281 0.16678289 0.11716596
0.04815789 -0.02584074 0.1101142 -0.019032722 -0.08904338 -0.143988 -0.070864506 -0.056225482
-0.07089135 0.008115486 0.103602424 0.07435432 -0.10599651 -0.055177927 -0.036820885 0.08030864
0.011130117 -0.05880672 -0.050362386 0.08562305 0.06505673 -0.06081582 0.08416822 0.07200723
0.016679619 0.04754552 0.03282703 -0.13273568 -0.08252065 0.0703693 0.14253241 -0.05544629
-0.0019519313 0.09594651 0.053957097 -0.05508181 -0.031707812 -0.077843554 0.009785385 0.03943494
-0.13341977 0.02260727 -0.092125066 0.0778999 0.017974928 0.013200744 -0.12106002 0.02523789
-0.018360052 0.12235957 -0.06443843 -0.07716074 -0.100145094 -0.082060285 0.04636965 -0.007987539
-0.024431108 -0.017594524 0.04498283 0.12567356 -0.037872054 -0.07582347 0.05186664 0.03650679
-0.11529031 -0.09539934 -0.04970683 -0.0689978 0.09191061 -0.057609648 -0.062346023 -0.11931964
0.12022087 0.015625296 0.0047219256 0.05146793 -0.013828156 -0.08477718 0.06760181 0.03355118
-0.023931459 0.022812184 0.037622195 0.009401704 0.1149369 0.09343927 -0.062996455 0.018521281
0.29083422 0.42317885 0.044548396 0.30747342 -0.0073194196 0.0043451576 0.11057931 -0.026089143
0.0542238 0.120187305 0.056332592 -0.05088611 -0.06797598 -0.015472143 -0.049750313 -0.01618147
-0.021695469 -0.07107411 0.013057432 -0.09874342 -0.0041001625 0.086699806 -0.0055171405 0.07291364
0.09918828 0.08705258 0.04532711 -0.18361482 0.075061895 0.054490566 -0.023478795 0.061130542
-0.090152666 -0.021989549 -0.0699445 -0.0019565015 -0.07804442 -0.14050387 0.04939292 -0.013558358
-0.073982835 -0.002240771 0.117281795 -0.028465495 0.029428825 -0.113797374 -3.45375e-05 -0.10332341
-0.06654703 0.02650513 0.02871024 0.0011834719 0.09544339 -0.06284093 0.0033788702 0.016644457
0.10434631 -0.08769822 -0.08567236 -0.099988654 -0.07313735 -0.08847487 -0.072068125 0.0065715085
0.101444766 -0.00028235692 -0.007598403 0.023655733 -0.0039546154 0.013095143 0.15298232 0.05609128
0.24995208 0.026160315 -0.029845826 -0.11871009 -0.06723239 0.078295134 -0.06621295 0.046397563
0.0495776 -0.057589643 0.03762601 -0.099179335 -0.01835144 -0.008369593 -0.117118575 0.05979968
-0.048961964 0.13252215 0.08541436 0.076603524 -0.00014065603 0.15453768 0.08307357 -0.023767278
-0.04296698 -0.02032993 0.081863664 -0.07780275 0.115176186 -0.06544515 0.08163891 -0.06963603
0.025618523 0.06421118 0.11369449 0.033734053 -0.025955774 -0.002111285 0.0022800795 -0.04963525
-0.062144734 0.051892623 -0.0030737147 -0.041273464 -0.017259056 0.063162014 -0.006983477 0.06574484
-0.06419356 0.0028446198 0.12931055 -0.011417746 0.04488037 0.14196734 0.1161794 -0.0693128
00000000: 3251 31bd d0d3 c23c c02f af3c 4b3e 6e3b
00000010: 23b8 7a3d b826 9cbd 3062 983d 3658 1c3e
00000020: f21e 17bd 04b2 6abd ec3f 55bd ef3d 86bc
00000030: cf1f a1bd 1723 06bd e78f 2cbd ccd9 8abd
00000040: ef81 513c fa6e ac3d b4a0 723d 4057 26bc
00000050: 7415 2f3d 0e91 f2bd 9766 25bc 7f78 de3a
00000060: b8a2 d53c cff4 f23d 93b8 44bd c93e 67bc
00000070: d8ac 3d38 1c8f 863d 24ab cbbc 1097 863d
00000080: 9ff7 93bd c07a 393d d4e1 e13d c5d0 2a3e
00000090: 1eef a93c 622d c83d 22c9 2a3e b5f4 ef3d
000000a0: 3541 453d f6af d3bc 8e83 e13d 83ea 9bbc
000000b0: 605c b6bd 9771 13be 6921 91bd b14c 66bd
000000c0: 7c2f 91bd d1f6 043c 822d d43d 1447 983d
000000d0: b314 d9bd 4002 62bd 7fd1 16bd db78 a43d
000000e0: 185b 363c 51df 70bd ca48 4ebd 235b af3d
000000f0: 763c 853d 021a 79bd 6360 ac3d 8778 933d
00000100: b2a3 883c 17bf 423d a375 063d ddeb 07be
00000110: 9600 a9bd c81d 903d 04f4 113e a61b 63bd
00000120: f2d7 ffba 9b7f c43d 1e02 5d3d 779d 61bd
00000130: 0de0 01bd 716c 9fbd e152 203c 8886 213d
00000140: 319f 08be e232 b93c 11ac bcbd fc89 9f3d
00000150: 2840 933c ef47 583c 51ee f7bd b1bf ce3c
00000160: d267 96bc a797 fa3d 4cf8 83bd 7306 9ebd
00000170: df18 cdbd 390f a8bd 1aee 3d3d 2bde 02bc
00000180: bf23 c8bc 6422 90bc ea3f 383d 92b0 003e
00000190: ba1f 1bbd 5649 9bbd 1d72 543d 2588 153d
000001a0: 531d ecbd bb60 c3bd 6499 4bbd b84e 8dbd
000001b0: a13b bc3d 18f8 6bbd 8b5e 7fbd db5d f4bd
000001c0: 5c36 f63d 9f00 803c 62ba 9a3b 09d0 523d
000001d0: 7d8f 62bc a89f adbd d172 8a3d f66c 093d
000001e0: e80b c4bc 9ee0 ba3c bb19 1a3d 9b09 1a3c
000001f0: 0a64 eb3d 175d bf3d 4904 81bd f1b9 973c
00000200: 39e8 943e e6aa d83e 6178 363d 286d 9d3e
00000210: bed7 efbb d361 8e3b 6877 e23d e6b8 d5bc
00000220: c619 5e3d c324 f63d 01bd 663d f46d 50bd
00000230: fe36 8bbd df7e 7dbc fcc6 4bbd 018f 84bc
00000240: b2ba b1bc 4e8f 91bd d7ee 553c fd39 cabd
00000250: a85a 86bb ab8f b13d 21c9 b4bb bf53 953d
00000260: 3a23 cb3d a048 b23d eba8 393d 8605 3cbe
00000270: 0dba 993d 8031 5f3d 9a56 c0bc 0564 7a3d
00000280: f6a1 b8bd 6d23 b4bc 103f 8fbd a638 00bb
00000290: c1d5 9fbd 3fe0 0fbe 3b50 4a3d e023 5ebc
000002a0: 5084 97bd e6d9 12bb 7031 f03d 7830 e9bc
000002b0: b814 f13c 990e e9bd 5cdc 10b8 399b d3bd
000002c0: cf49 88bd 4921 d93c bd31 eb3c ba1e 9b3a
000002d0: d377 c33d bfb2 80bd 0970 5d3b f559 883c
000002e0: 85b3 d53d 209b b3bd fe74 afbd dac6 ccbd
000002f0: 09c9 95bd 5032 b5bd 7498 93bd cf55 d73b
00000300: 46c2 cf3d 4e09 94b9 06fc f8bb abc9 c13c
00000310: b895 81bb 038d 563c 66a7 1c3e f8bf 653d
00000320: 70f3 7f3e 284e d63c 3c7f f4bc 471e f3bd
00000330: 23b1 89bd 3359 a03d a89a 87bd 5f0b 3e3d
00000340: e211 4b3d 1ee3 6bbd bb1d 1a3d 891e cbbd
00000350: c255 96bc 9e20 09bc dddb efbd 82f0 743d
00000360: 578c 48bd e3b3 073e b9ed ae3d 4fe2 9c3d
00000370: 117d 13b9 203f 1e3e 7a22 aa3d 98b3 c2bc
00000380: 25fe 2fbd f48a a6bc 23a8 a73d 0c57 9fbd
00000390: 7ee1 eb3d 1b08 86bd 4d32 a73d 569d 8ebd
000003a0: f0dd d13c 2781 833d a8d8 e83d b82c 0a3d
000003b0: 34a1 d4bc 7c5d 0abb 636d 153b 554e 4bbd
000003c0: 7a8b 7ebd 5c8d 543d 6070 49bb 5d0e 29bd
000003d0: dd62 8dbc 165b 813d a7d5 e4bb 3ba5 863d
000003e0: ea77 83bd cd6c 3a3b fc69 043e 7f11 3bbc
000003f0: 7bd4 373d e35f 113e 77ef ed3d dff3 8dbd

deconv2.bias f4 [16]
0.011006269 0.08683606 -0.058173254 0.120330736 -0.1220579 -0.10521908 0.15829055 0.021207817
0.05999297 0.06535536 0.03396449 0.047543366 -0.04069389 -0.093241245 0.086012326 0.044310547
00000000: a353 343c 1bd7 b13d 1447 6ebd f66f f63d
00000010: 7ef9 f9bd 1a7d d7bd eb16 223e 04bc ad3c
00000020: 30bb 753d 08d9 853d 591e 0b3d d5bc 423d
00000030: a3ae 26bd 44f5 bebd 3b27 b03d fa7e 353d

deconv3.weight f4 [16, 3, 2, 2]
-0.18102652 -0.011120716 -0.07019753 -0.032578293 -0.14638233 -0.3054439 -0.22858663 -0.12743928
-0.11146208 -0.13168535 -0.04055516 -0.13697428 0.21647343 -0.035836574 0.1051836 0.19778015
0.04303254 0.3025449 0.20427877 0.0963219 0.31330106 0.17437412 0.15505621 -0.04903697
0.10692103 -0.15033138 -0.10168842 0.056457836 -0.08144898 -0.15557091 0.121931076 -0.009985635
0.16682371 -0.14759248 0.15101637 -0.14953236 0.25854674 0.13129441 0.19761267 0.36258194
-0.072779 0.08418166 -0.19076478 0.019959519 0.07821512 -0.18002756 -0.015564925 -0.2168322
0.024826702 -0.21403168 0.2629856 0.20433725 -0.107976995 0.2523257 -0.1375666 -0.16118085
0.11107086 0.2530449 0.04887762 -0.19703898 -0.10084319 0.05618792 -0.0076462477 -0.04527432
0.20362334 0.31828293 0.20087484 0.22123365 0.057660744 -0.08220242 0.11795519 -0.14420374
0.12878908 0.01704247 0.09780977 -0.079834685 0.22521849 0.19882481 0.27009612 0.12553154
-0.15984726 0.111893974 -0.17819662 0.1916424 0.10486646 -0.06385619 0.25043774 -0.05796565
-0.14104313 0.08626269 0.23543906 0.086566046 -0.4385682 -0.046850882 -0.18101604 -0.033925243
0.007680216 -0.23335963 0.19658478 -0.1541658 0.1455845 -0.05074211 0.25134078 0.15783723
0.09933041 0.13344519 0.15729198 -0.034665424 -0.12584794 0.118475065 0.24675672 0.049825814
0.055240873 -0.16027418 -0.006386179 0.118336685 0.004423132 0.22058465 0.3759025 0.35181916
0.22229366 0.2874061 -0.089752495 0.17743248 0.160577 0.15985487 0.026057206 0.18553798
0.25607154 -0.08069722 0.028205696 -0.00064822176 -0.07396403 -0.18718483 0.14138216 -0.2057072
-0.18207237 0.010274882 0.0070928796 -0.13228406 0.25011247 -0.22604081 0.25421268 -0.20911919
0.09806428 0.029581768 0.052913822 -0.017540244 0.26580942 -0.1591248 -0.22906019 -0.041133128
0.018154237 -0.044745747 -0.09636798 0.32734478 0.20320818 0.18713117 -0.013472832 -0.15916146
-0.0084775565 0.050728038 0.023933941 -0.24694064 -0.0059371307 0.044878554 -0.11888128 0.30288377
0.022163803 0.2950943 -0.17147823 0.0067992136 0.2663246 -0.088318564 0.089573406 -0.08488994
0.19688208 -0.008193918 -0.0432028 -0.026281418 -0.00350739 0.14613244 -0.1730345 -0.020206893
0.044014294 0.24974507 0.057003178 0.06780484 -0.10387538 0.0808257 -0.13360491 0.23267303
00000000: 045f 39be aa33 36bc b9c3 8fbd d170 05bd
00000010: 40e5 15be 2563 9cbe 9d12 6abe 717f 02be
00000020: 3b46 e4bd 86d8 06be 2b1d 26bd fc42 0cbe
00000030: 36ab 5d3e 5fc9 12bd 806a d73d e186 4a3e
00000040: e342 303d 2ae7 9a3e 742e 513e 6b44 c53d
00000050: ff68 a03e 218f 323e 0ec7 1e3e fdda 48bd
00000060: 6af9 da3d 78f0 19be 0542 d0bd 5540 673d
00000070: b9ce a6bd fb4d 1fbe 00b7 f93d ca9a 23bc
00000080: d6d3 2a3e 7c22 17be 09a4 1a3e 031f 19be
00000090: 3d60 843e 0b72 063e fa5a 4a3e 57a4 b93e
000000a0: 280d 95bd 6f67 ac3d d857 43be 2582 a33c
000000b0: 402f a03d 2559 38be 0704 7fbc 4309 5ebe
000000c0: 5e61 cb3c 1f2b 5bbe 0ca6 863e c93d 513e
000000d0: 0b23 ddbd d630 813e 42de 0cbe 980c 25be
000000e0: 1e79 e33d 1a8f 813e e633 483d 96c4 49be
000000f0: e086 cebd 4e25 663d 608d fabb 9171 39bd
00000100: a382 503e fbf5 a23e 22b2 4d3e 138b 623e
00000110: ac2d 6c3d be59 a8bd 7e92 f13d 25aa 13be
00000120: 49e1 033e a69c 8b3c 7d50 c83d 5e80 a3bd
00000130: ad9f 663e bb98 4b3e 0a4a 8a3e 578b 003e
00000140: 00af 23be ab28 e53d 2d79 36be e83d 443e
00000150: 3ac4 d63d 09c7 82bd 6039 803e 646d 6dbd
00000160: 9c6d 10be 7eaa b03d f016 713e 8a49 b13d
00000170: 038c e0be b6e6 3fbd 455c 39be 32f5 0abd
00000180: 52aa fb3b d4f5 6ebe 854d 493e a4dd 1dbe
00000190: 1a14 153e f5d6 4fbd bdaf 803e 15a0 213e
000001a0: be6d cb3d dba5 083e 2611 213e 55fd 0dbd
000001b0: 48de 00be 0ea3 f23d cbad 7c3e 2716 4c3d
000001c0: 4144 623d ea1e 24be 2743 d1bb 815a f23d
000001d0: ecef 903b f1e0 613e 4b76 c03e a421 b43e
000001e0: f3a0 633e e426 933e 28d0 b7bd dcb0 353e
000001f0: 4c6e 243e ffb0 233e ec75 d53c abfd 3d3e
00000200: cf1b 833e 9644 a5bd a20f e73c 6ded 29ba
00000210: 747a 97bd 61ad 3fbe 7cc6 103e e9a4 52be
00000220: 2e71 3abe fb57 283c 636b e83b 7975 07be
00000230: be0e 803e 3e77 67be 2a28 823e 5723 56be
00000240: edd5 c83d 7755 f23c 2abc 583d 8fb0 8fbc
00000250: 2c18 883e 9df1 22be c18e 6abe 367b 28bd
00000260: 32b8 943c 5147 37bd 935c c5bd bc99 a73e
00000270: ce15 503e 509f 3f3e 27bd 5cbc 39fb 22be
00000280: 73e5 0abc 34c8 4f3d 1d11 c43c 02de 7cbe
00000290: 438c c2bb 93d2 373d 0778 f3bd 9513 9b3e
000002a0: dd90 b53c 9a16 973e fd97 2fbe f0cb de3b
000002b0: b35b 883e 5de0 b4bd 4372 b73d c7da adbd
000002c0: 759b 493e c83f 06bc 6bf5 30bd 214c d7bc
000002d0: 3ddc 65bb bea3 153e f52f 31be ed88 a5bc
000002e0: 5548 343d 2cbd 7f3e 2a7c 693d 44dd 8a3d
000002f0: 9dbc d4bd f287 a53d bacf 08be d741 6e3e

deconv3.bias f4 [3]
0.08983532 0.15839858 0.22312641
00000000: 95fb b73d 3d33 223e 407b 643e
