geological_encoding.pt (torch, 96343 bytes, 6 tensors)

conv1.weight f4 [16, 3, 3, 3]
000000 2e 82 e0 bc b4 1b 0f be 5d 89 52 3c 2b b6 1b be
       -0.027405825 -0.13975412 0.012850133 -0.1520621
000010 b2 33 37 3e 0d bd 04 3e 35 21 18 be b3 48 14 bd
       0.17890814 0.12962742 -0.14856417 -0.036202144
000020 94 cb 24 bd e5 b8 26 be d3 28 58 bd 74 06 c8 3d
       -0.04023321 -0.16281469 -0.052773308 0.09766856
000030 47 71 4b 3e 97 b0 dd bd 69 e7 05 3e 6a 3c 49 3d
       0.1986743 -0.108246975 0.13076557 0.04912988
000040 10 65 19 3e cf 10 af 3d ee 96 2d 3c e0 18 29 be
       0.14979959 0.08548128 0.0105950665 -0.16513395
000050 ee 3c d1 bd c8 60 c3 3d 2f 84 05 be 58 6d 50 3e
       -0.102166995 0.09539944 -0.13038705 0.20354211
000060 53 9d 4b 3e 89 d3 38 3e c2 2b 52 bd 53 9c 81 3d
       0.19884233 0.18049444 -0.051311262 0.063286446
000070 ca 08 b5 bc d0 48 14 be 85 81 30 be 3d 7d c1 bd
       -0.022098918 -0.14480901 -0.17236908 -0.094477154
000080 92 3f a2 bd 24 e3 41 3e 62 3e 8f 3d 53 4c 40 3b
       -0.07922281 0.18934304 0.069943205 0.0029342368
000090 da e9 d3 bc da a4 13 3e e1 64 fd 3d 9a d0 07 bd
       -0.025868345 0.14418355 0.12372757 -0.033157922
0000a0 b9 c3 d2 bc 9e 56 1d be af 52 1b 3e 53 04 75 bd
       -0.025728093 -0.15365073 0.1516826 -0.059818577
0000b0 23 b4 ac bd 49 81 54 bd 4e d5 0e be 9f 9e c7 3d
       -0.08432796 -0.05188111 -0.13948557 0.097470514
0000c0 cc b2 4e bd df 62 a1 3d ff a4 ab 3d c6 2d 04 bc
       -0.050463483 0.07880186 0.0838108 -0.008067554
0000d0 2c c3 21 3c d8 ce 8d bd 3e bf 22 3e ed 56 97 bd
       0.009873193 -0.06924218 0.15893266 -0.07389627
0000e0 ec bf 2e 3e 39 e9 32 3e 76 05 b2 3d c1 49 48 3e
       0.170654 0.1747178 0.08692448 0.19559385
0000f0 32 b3 4b 3e a0 99 20 3d 8f 01 b0 3d 6c fd 59 3d
       0.19892576 0.03920901 0.08594047 0.053220198
000100 05 53 33 bd 7f 2a 02 3e 1c 31 8c bc 45 43 07 3b
       -0.043780345 0.12711523 -0.01711326 0.002063946
000110 6a 61 53 3e 54 1e 0d be b1 b5 a3 bd 15 7a 0c 3d
       0.2064263 -0.137811 -0.07993639 0.034296114
000120 7b 84 4f 3d 3a 84 00 3e 30 29 24 be 65 0c 05 bd
       0.050663453 0.1255044 -0.16031337 -0.032482523
000130 1d 69 01 3e fe b7 0b be 1b 8f 2d 3e 8a 54 d9 3d
       0.12637754 -0.13644406 0.16949122 0.10611828
000140 57 c5 22 3e e9 80 80 bd 1c 61 08 3e d7 36 15 3e
       0.15895592 -0.06274588 0.13318294 0.14571701
000150 6a 10 8e 3e fa c7 73 3e 7c e8 3e 3e 69 c3 0e 3e
       0.27746898 0.23806754 0.18643373 0.1394173
000160 e7 f4 80 3e 3e b8 a8 bc 71 b9 3d be c6 e9 31 be
       0.25186846 -0.020595666 -0.18527772 -0.17374334
000170 35 10 13 3d fe ff 09 3c a8 75 4e 3d c7 3e fe bd
       0.035904128 0.00842285 0.050405174 -0.124143176
000180 71 93 13 be b9 9d d5 3d fe 3a 89 bd 10 98 83 be
       -0.14411713 0.10430474 -0.06700705 -0.25701952
000190 2f 88 92 3d 7a 8d 6b bc e4 a2 66 bd cd 91 54 be
       0.07154881 -0.014376992 -0.05630769 -0.20758744
0001a0 85 a4 4e be ef 2f d1 3d 90 6c a1 3d 59 d3 2d be
       -0.20179947 0.10214221 0.07882035 -0.16975154
0001b0 63 e5 f0 3d f9 b7 33 3e 1f a8 bd 3d 90 84 be bb
       0.11762502 0.17550649 0.09260582 -0.0058141425
0001c0 8f e2 21 be 65 2a 83 3d c9 5b 09 3e bc 9e 33 3b
       -0.15809081 0.064045705 0.1341392 0.0027407845
0001d0 0d 23 49 3e fe 32 82 bd eb 35 a7 bd 48 27 67 3d
       0.19642277 -0.06357382 -0.08164581 0.056433946
0001e0 1d 1a 07 3d 79 c8 f5 bd d5 f0 b8 3d 2c c7 11 3e
       0.032983888 -0.12001128 0.0903031 0.14236134
0001f0 16 ea 21 be 21 37 0d 3e 94 d5 ff 3c 19 08 26 3e
       -0.15811953 0.13790561 0.031229772 0.16214027
000200 e6 ea 15 3e 55 34 56 bc 68 20 57 bd a1 65 62 bd
       0.14640388 -0.013074 -0.05252114 -0.055272702
000210 29 42 fc 3d 87 a5 ab 3c 92 0f c6 3c 60 bb 2e 3d
       0.123173065 0.020952953 0.024177346 0.042659163
000220 87 fb 97 3d d0 c3 09 3d b0 e5 97 bd d1 dd 8a 3d
       0.07421022 0.033634007 -0.07416856 0.06780589
000230 d8 80 0f 3e 5e 13 c4 3d 31 49 46 bd 9e 20 34 be
       0.14013994 0.095740065 -0.048409645 -0.17590567
000240 17 ab 21 3c 88 50 bc 3d 1b cd 81 3d 6b 55 0b be
       0.009867451 0.091950476 0.06337949 -0.13606803
000250 ec 2a 97 3d f7 e1 37 be a9 ac e5 3d 5d cb 78 3d
       0.073812336 -0.17957292 0.11214573 0.060740817
000260 9c 9a 34 be 80 f1 a2 3d 4b 95 e9 bd 1e 08 ff 3d
       -0.17637104 0.07956219 -0.114054285 0.1245272
000270 04 f1 01 3e c0 4a 27 be 53 cd d3 bd a3 5e d3 3d
       0.12689596 -0.16337109 -0.10341897 0.10320785
000280 30 ca c9 bd 67 2b 3c 3e 6c 4f 12 3e 39 2b 14 be
       -0.09853017 0.18375932 0.1428811 -0.14469613
000290 48 66 55 3e b0 ad 89 3d cb 3f 51 3a 7a 08 65 bd
       0.20839798 0.067225814 0.0007982223 -0.055916287
0002a0 20 45 d7 bd 6c 7c c7 3d 72 3f be bd 12 3f f7 bd
       -0.105112314 0.097405285 -0.09289445 -0.120725766
0002b0 b3 29 e1 bd 76 04 69 3e ca fb 57 3b 19 22 3e be
       -0.109942816 0.22755608 0.0032956474 -0.18567695
0002c0 96 49 bc bd 37 00 b1 3d 0e d6 44 be 11 12 20 3e
       -0.09193723 0.08642619 -0.1922228 0.15631892
0002d0 e8 b1 87 bc b5 f2 4e 3e 7c e2 25 3e 09 8b 7e 3c
       -0.016564324 0.20209773 0.16199678 0.015536078
0002e0 88 ae d9 3b 40 db 40 be ea 2d dc bd 2e ef 88 3d
       0.00664312 -0.18833637 -0.10750945 0.06686245
0002f0 70 a4 01 bd 0c ad 16 bd b2 47 e5 bd c0 dd 96 3d
       -0.03165096 -0.036786124 -0.111953154 0.07366514
000300 05 e6 b2 bd 9d ac d8 bd b5 6a 34 be 70 40 0f be
       -0.08735279 -0.10579798 -0.1761883 -0.13989425
000310 e8 b8 ed bc 28 26 a5 3d ec e5 41 be 4a 20 eb bd
       -0.029018834 0.08063918 -0.18935364 -0.11480768
000320 7b 9d 27 be 8e a6 92 bd 1b a8 19 bb b7 7e db 3d
       -0.16368668 -0.07160674 -0.0023446146 0.10717528
000330 ed a3 a7 3c fd 50 14 be 28 af d5 bc f8 b6 06 be
       0.020463908 -0.1448402 -0.026084498 -0.13155735
000340 bb ed d5 3b c5 37 ba bd b1 b5 bb 3d 06 c2 e6 bd
       0.006528584 -0.090926684 0.09165514 -0.11267476
000350 0e 42 46 bc c0 4a ac bd 84 82 c9 3d fa b2 a2 3d
       -0.01210071 -0.08412695 0.09839347 0.07944293
000360 f3 c9 04 be 57 f4 a8 bb 64 b1 17 3e a3 5f 1d be
       -0.12967663 -0.0051560807 0.14813763 -0.15368514
000370 de a2 25 3e 21 47 a4 3b fe e2 0d 3e b9 d3 ad 3d
       0.1617541 0.005013362 0.13856122 0.084876485
000380 96 dd 36 3e 83 e2 ba 3d 44 1a 5a bd 20 c4 42 bd
       0.17857966 0.09125235 -0.053247705 -0.04755032
000390 d9 fd 52 3e 3c cc 43 3e fc ff 2f 3d dd fe a3 bd
       0.20604648 0.19120878 0.042968735 -0.08007596
0003a0 cb 9b 58 bd 9b 57 0d bd 1d 27 db bd 60 3e 25 3e
       -0.05288295 -0.034507375 -0.1070082 0.16137075
0003b0 35 b0 54 3e df b9 95 3c 21 4d 10 3e 23 fe 44 3e
       0.20770343 0.018277107 0.14091922 0.1923757
0003c0 ad 2c 51 3e 88 ae 5a 3d 1b e7 32 3e 9b ed 1e 3d
       0.20427199 0.053389102 0.17470972 0.038800817
0003d0 2c 4c 62 bd 5a 91 85 bd 11 91 4d 3e 19 2c 1a 3e
       -0.055248424 -0.06521864 0.2007487 0.15055884
0003e0 80 f2 c7 bd db 35 57 3d a7 41 b9 bd 64 6c 0f bd
       -0.0976305 0.052541595 -0.09045725 -0.03501548
0003f0 41 ce 38 be f2 f4 29 be 03 f7 03 3e 41 e9 57 bc
       -0.1804743 -0.16597345 0.12887196 -0.013178171

conv1.bias f4 [16]
000000 98 30 0f 3d 13 29 36 3e f0 be 89 bd 64 78 99 3d
       0.034958452 0.17789106 -0.067258716 0.07493666
000010 19 93 02 3e 2d 2a 2e 3e e3 bb 07 bb 40 80 a8 bd
       0.12751426 0.17008276 -0.0020711354 -0.08227587
000020 63 16 d8 bd 1b 7b 31 bd 00 b6 27 bd ed 4c 7b bd
       -0.10551145 -0.043330293 -0.040945053 -0.06135266
000030 63 b5 a6 3d ba 19 06 be 2d e7 e4 3d b7 74 75 bd
       0.081400655 -0.13095751 0.11176906 -0.05992576

conv2.weight f4 [32, 16, 3, 3]
000000 20 59 87 3c c0 49 6b 3d c0 2a 87 3d 90 e7 b4 3c
       0.01652199 0.05744338 0.06599951 0.022083074
000010 2e 6c 2f bd 18 b0 25 3d 83 c3 99 3d 94 48 70 bd
       -0.042827778 0.04045114 0.07507994 -0.058662966
000020 82 f4 3e bd 19 5a d9 3c e4 4f 15 38 44 5e 8b 3d
       -0.0466199 0.02653222 3.5598772e-05 0.06805089
000030 24 d0 f9 bc d2 46 3c 3d d2 98 ad 3c 30 ca 71 3d
       -0.030494757 0.045965977 0.021191034 0.05903071
000040 18 d8 de 3a 56 b5 75 bd e8 bb 5d 3d 49 2f 2a bc
       0.0017001657 -0.05998739 0.05413428 -0.01038725
000050 d3 1b 34 3d ab 96 ed 3b d8 fd 06 bc e0 70 af 3d
       0.043971848 0.007250627 -0.008239232 0.08566451
000060 61 22 c4 3d 2c 09 a9 3d 9e 70 b8 3d d5 eb 78 bc
       0.0957687 0.082537025 0.09005855 -0.0151929455
000070 7f 81 61 be e7 ea 83 3e 81 37 7a 3e f8 97 5d 3e
       -0.22022055 0.25765154 0.24435236 0.21640003
000080 ad bd 03 3e 2e 8a f2 3d 87 83 41 3e ca 37 4e 3e
       0.12865324 0.11842762 0.1889783 0.2013847
000090 34 c2 a2 3c cf e0 e3 3c 85 91 c5 bb 04 f2 1d 3d
       0.019867994 0.027817158 -0.00602931 0.038560882
0000a0 92 37 8a 3d 09 86 a1 bd c8 5c 92 3d c1 84 89 bd
       0.067488804 -0.07886893 0.07146603 -0.06714774
0000b0 de 33 5f 3d 94 d6 00 3d 20 eb 0c 3d 75 97 74 3d
       0.054492824 0.031454638 0.03440392 0.059714753
0000c0 54 9d 3b 3d f2 3f a9 bd d6 6e 7f 3d 39 cf 86 bb
       0.045804337 -0.0826415 0.06236156 -0.0041140583
0000d0 6e 29 79 3d 52 52 87 3d 88 82 9d 3d 90 06 42 3e
       0.060830526 0.06607498 0.076909125 0.18947816
0000e0 93 3d c6 3d ee 64 64 bd 98 67 35 bd bc 9a 03 bd
       0.09679713 -0.055760317 -0.044288248 -0.032129988
0000f0 be 09 c9 bd b6 9c aa bd 8a 7a 36 bd bc f3 9a bd
       -0.09816311 -0.083306715 -0.044550456 -0.0756602
000100 de 53 3f 3d 68 79 43 bc 78 1f 73 3d ba d6 7f bd
       0.04671084 -0.011930801 0.059356183 -0.06246064
000110 ba 63 75 3d 53 32 90 3b 8b 02 20 3d 3a e1 f3 3c
       0.05990956 0.0044005304 0.039064925 0.029770482
000120 8a 8a 9b 3d e4 5a a6 3b 4c 52 ca 3c bf dc 7e 3d
       0.075947836 0.005076753 0.024697445 0.06222224
000130 01 05 02 3d 46 ac a6 3d 93 fc a0 3d 8f 17 aa bc
       0.031743053 0.08138327 0.07860675 -0.020763187
000140 fc 56 e4 3c fb 07 0d bd 36 2f 18 be 95 f6 92 bd
       0.027873509 -0.03443144 -0.1486176 -0.07175938
000150 4a 0c 82 bc 75 a5 bb bd f2 8f 53 bd 2d df 23 3d
       -0.015875 -0.09162418 -0.05165095 0.04000776
000160 dd 39 57 bc 3e 70 d6 bb 7a 75 a7 3c 01 69 6e 3d
       -0.013136354 -0.006544142 0.02044176 0.05820561
000170 bc 94 7e bd c9 ad 97 bd c4 13 b1 bd 4c 3f 8e bd
       -0.062153563 -0.07406194 -0.08646348 -0.06945667
000180 43 e8 16 3d a4 7f 7e bd d9 c5 66 bc 28 25 8c bd
       0.036842596 -0.062133446 -0.0140852565 -0.068430245
000190 b1 f4 5b 3d 68 e0 bd ba 7c 9c 33 bd c8 4e 39 bd
       0.053700153 -0.0014486434 -0.043850407 -0.045241147
0001a0 61 fc 38 3d 97 ec 25 bb 35 93 88 bc 57 34 7a 3d
       0.045162562 -0.002531802 -0.016671756 0.06108507
0001b0 e8 d6 96 bd 9a c7 07 be ad 90 13 3c a8 71 b7 bd
       -0.07365209 -0.13259736 0.009006661 -0.08957225
0001c0 70 d1 23 be f1 eb 88 bc c8 f2 9a 3b 32 a3 e0 bb
       -0.15997863 -0.016714068 0.004728649 -0.006855392
0001d0 24 0f f0 bc 2c 60 0e 3d 5b 2a 95 3c db d9 8a bd
       -0.029304095 0.034759685 0.018208673 -0.06779834
0001e0 99 b4 d4 ba cd 26 e9 38 1c aa 83 3d 63 59 ec 3b
       -0.0016228139 0.00011117533 0.0642893 0.007212804
0001f0 67 02 91 3d e1 5a 3f 3d e3 78 92 3d 00 2a 9c 3d
       0.07080536 0.04671753 0.071519636 0.07625198
000200 5e 1c 70 3d a4 d3 58 bd 73 e9 c7 bc 47 5c d0 bc
       0.058620803 -0.05293621 -0.02440331 -0.025434626
000210 a8 bf 10 3d b3 0d 8f bd 1e d7 0b 3d 42 7a 98 3d
       0.035339028 -0.06985035 0.0341407 0.07445194
000220 ff 86 d3 bc f6 c2 dd bb ba 62 16 bd 5e 74 12 3d
       -0.025821207 -0.006767626 -0.036715247 0.035755508
000230 68 a8 8b 3d e1 f6 98 bc f2 9e 67 ba 8b e7 a2 bc
       0.0681923 -0.018672409 -0.00088356354 -0.019885799
000240 a3 01 89 bd e6 e4 89 bd 50 57 29 3d 41 00 4b bd
       -0.06689765 -0.06733112 0.041343033 -0.04956079
000250 00 39 91 3c a3 37 17 bd 8e 40 8a bd 74 5d 70 ba
       0.017727375 -0.036918294 -0.06750594 -0.0009169199
000260 ab 22 6b 3d f6 bb d4 3c f0 ee 22 3a 90 13 c7 bc
       0.05740611 0.025968533 0.0006215414 -0.02430132
000270 c6 30 44 3c 1a 28 46 3d 50 aa 7b bc e7 22 95 bc
       0.011974519 0.048378088 -0.01536043 -0.01820512
000280 86 f1 36 3c 96 a5 50 bd fe 42 89 bc 48 2d a7 3d
       0.011165982 -0.050939165 -0.016755577 0.081629336
000290 90 56 73 bd 1e 0a 9d bd 3c c1 42 3d 64 e9 a3 bc
       -0.059408724 -0.07667945 0.047547564 -0.02000875
0002a0 c6 eb 39 3d 60 c1 a3 bd 48 ab fd 3c db fe c3 3b
       0.045390867 -0.07995868 0.030965462 0.005981309
0002b0 2c af 61 bd c8 ba 81 bc 92 4e 43 bd 0a 6b 60 bd
       -0.055098698 -0.015836135 -0.047682352 -0.05478958
0002c0 46 7c 63 3d 6d 0f 02 bd 79 5b f1 bc 6b 38 f4 bc
       0.05553844 -0.031752992 -0.029462563 -0.029812058
0002d0 f4 86 9f bd 99 b5 11 bd c0 39 8e bc 31 8b a0 3d
       -0.07789412 -0.035573576 -0.017361522 0.07839049
0002e0 ef 7e 99 bd 3b 70 80 3d 3c 54 3b bd c2 ef 03 3d
       -0.07494914 0.06271406 -0.04573463 0.032211073
0002f0 7d d5 1f 3d ba 0e 4b bd 80 d5 56 3d cb 03 44 3d
       0.039021958 -0.04957459 0.052449703 0.04785518
000300 5f 5c 67 bd ef f5 5e bd ac 73 8f bc b1 b4 74 bd
       -0.056484576 -0.05443376 -0.017511211 -0.059742633
000310 62 38 a8 3c 05 51 75 bd 3f 9c 66 bd 88 1a 04 3d
       0.020534698 -0.05989172 -0.05630135 0.032251865
000320 8b 0b 00 3d ab 20 67 3d ac 37 b9 3c 49 01 ae bc
       0.03126101 0.05642764 0.022609554 -0.021240847
000330 71 62 a6 3d 3a e7 b6 bb 8d eb 71 bd 49 a6 94 3d
       0.08124245 -0.0055817636 -0.05906253 0.07258279
000340 b5 fd c8 3b fa 73 b0 3c 9a 4f a4 bc 18 04 f1 bb
       0.00613376 0.021539677 -0.020057488 -0.0073552243
000350 af df 23 3d e6 b7 06 3d 9b ec 03 bd 33 fd 1b bd
       0.040008243 0.032890223 -0.032208066 -0.038083266
000360 c4 cf 6d bd 59 ba 68 bd ed 4b 0c bd 8a 89 84 3d
       -0.05805947 -0.05681834 -0.034252096 0.06471546
000370 c7 bf 15 3d f7 b2 fa bb 1e 4a 24 bd 52 65 70 bd
       0.036559846 -0.007650729 -0.040109746 -0.058690377
000380 23 9e 60 bd 26 18 79 3d 66 23 72 bd f0 67 a5 bc
       -0.05483831 0.060814045 -0.05911579 -0.020191163
000390 d0 03 85 3d 6e ee a9 bc 34 b2 61 3c a3 f0 28 3d
       0.06494868 -0.020743575 0.013775397 0.041245114
0003a0 9c e1 24 3d f2 03 15 3d 5a 04 52 3d da f7 32 bd
       0.04025422 0.036380716 0.05127368 -0.0436934
0003b0 9b 6c 66 3d 63 c5 b1 3c 8c 40 89 3d 52 b8 9a bd
       0.056255918 0.021700567 0.067017645 -0.075546876
0003c0 10 d9 7f 3d 2e 24 4e 3d 71 d3 11 3d 11 4b b0 3b
       0.062462866 0.050327472 0.035602037 0.0053800424
0003d0 d6 79 08 bd 70 fc 59 3d 2d 55 99 3a 4a 06 10 bd
       -0.033319317 0.05321926 0.0011698358 -0.035162248
0003e0 6a e4 1f bc 2b 89 8f bd ef 0f 81 bd 2d d6 76 bc
       -0.009759048 -0.070085846 -0.06301867 -0.015065712
0003f0 e8 10 a0 bd c9 04 73 bd 2e f0 43 3d 1e ed 6f bd
       -0.078157246 -0.059330735 0.047836475 -0.058575742

conv2.bias f4 [32]
000000 f3 ad 6d bc ff 0e f9 bc 53 b4 72 bd 65 ff b9 bd
       -0.014506805 -0.030402659 -0.059254 -0.09081916
000010 93 cb 1a bd 8f 4a 8c bc 5e 07 70 3d c5 40 13 bd
       -0.0377918 -0.017125396 0.058600776 -0.03595044
000020 d0 46 36 bd a9 13 c7 bc a7 56 ba 3d e2 f4 69 3d
       -0.044501126 -0.024301367 0.09098559 0.057118304
000030 9b c5 6d 3d c3 2f 05 bd 85 74 5a 3c 1f 24 ad bd
       0.05804978 -0.032516252 0.0133334445 -0.08454155
000040 48 a5 b6 3c c3 57 60 bd 37 04 d7 3c 6f da 8f 3d
       0.02229561 -0.054771196 0.026247127 0.07024085
000050 76 08 30 3d f0 b8 0a 3c a8 53 fb bc f7 f2 0c 3d
       0.04297682 0.008466944 -0.030679539 0.034411397
000060 ed c9 26 3b 07 64 39 3d fa e5 78 3d a2 3d 9e bd
       0.0025449947 0.04526141 0.060766198 -0.07726599
000070 39 12 d8 3c 6e 2f 0d bd 37 05 ff bc 44 7a 62 3d
       0.026375877 -0.03446906 -0.031130416 0.055292383

conv3.weight f4 [64, 32, 3, 3]
000000 45 97 45 3d 87 e3 05 bd f7 3f 2d 3d 51 87 56 ba
       0.048239965 -0.03268769 0.04229733 -0.0008183616
000010 cb 8c d6 bc 3e f6 28 3d 3a cb f8 3b f8 65 f7 3b
       -0.026190182 0.04125046 0.007592586 0.0075499974
000020 85 75 9a bc e0 70 a9 bb dd 73 f7 bb 60 df 32 bb
       -0.018854866 -0.0051709265 -0.007551654 -0.0027293786
000030 f7 10 49 bd 44 e2 03 3d 9b e6 b4 3c c9 d0 c2 bc
       -0.049088445 0.032198206 0.022082618 -0.023781197
000040 05 a5 ea bc 5d 0f 85 3c d9 71 77 bd a9 63 94 bc
       -0.02864314 0.016242677 -0.060411308 -0.018113928
000050 4e 51 0a 3c 68 54 e1 3b 9d a6 87 bd fb 02 a9 39
       0.008442236 0.006876517 -0.06623576 0.00032236413
000060 50 be 3d 3d 0d 73 31 3c b1 96 ab 3c 9e 58 d8 3c
       0.046324074 0.010830653 0.020945879 0.026409443
000070 e4 30 f0 3b 9d 2e 87 3c 12 22 a6 bc 35 2c 37 bc
       0.007330047 0.01650172 -0.020279918 -0.011179973
000080 99 f6 29 3d 38 29 56 bd ec c5 80 3c d6 a1 96 bc
       0.04149494 -0.052285403 0.015719377 -0.018387716
000090 b8 9f ea bb 8f 3a 91 bb 6b b8 5c bd 80 4a 0f bd
       -0.0071601532 -0.0044320296 -0.053886812 -0.034983158
0000a0 9a 75 3b bc d0 e9 2d bd 78 9d f0 bc f7 89 13 bc
       -0.011441613 -0.04245931 -0.029371962 -0.009005061
0000b0 cb 6b cd bb 14 90 d3 3b c9 af a5 bb a6 af 0d 3d
       -0.0062689534 0.0064563844 -0.0050563556 0.03459134
0000c0 fe fd 50 3c 0a fb 29 3d 0e 4c 8a bc c1 d2 89 3c
       0.012755869 0.041499175 -0.016881969 0.016824128
0000d0 fb 22 40 bb 4c 6a de bc b2 ca ff bc 83 73 30 bd
       -0.0029317725 -0.027150296 -0.031224582 -0.04307891
0000e0 05 b4 da 3c d2 b6 6b 3c aa 38 8f bc 96 ac d1 3c
       0.026697168 0.0143868495 -0.017483074 0.02559499
0000f0 8a f7 01 3c d4 18 67 bd e7 37 43 bd 21 b5 f1 bc
       0.007932553 -0.056420162 -0.047660735 -0.029505314
000100 18 95 22 3d e1 89 58 3d 4c d0 d2 3b 96 25 6a bc
       0.039692968 0.052865867 0.0064335223 -0.014291188
000110 2f ed 36 bb a5 58 ad 3c 53 32 47 bc 1a 90 b2 3a
       -0.0027912369 0.021160433 -0.012157994 0.0013623268
000120 e5 01 23 3d e6 7c 1a 3d 78 77 9f 3a 3b bd 5f 3c
       0.03979673 0.03771677 0.0012166342 0.013655956
000130 a0 9d 89 bd db e2 c6 b9 ab ef 41 3d 44 5c fb 3c
       -0.06719518 -0.00037934523 0.047347706 0.030683644
000140 cc bd 20 3d d2 2f e5 3b 4f 46 81 3b 80 3f 7d 3a
       0.039243504 0.006994226 0.003945149 0.00096606463
000150 9e 69 9a bc f3 32 8d bc b1 5d 01 3d cf 16 2d 3a
       -0.01884919 -0.017236209 0.03158349 0.0006602825
000160 54 91 7d bd 53 20 9e bb 4f 57 e4 3b 8d 34 fb bb
       -0.061906174 -0.0048256307 0.006968416 -0.0076661767
000170 42 f8 03 bd 54 94 1b bd 6a e8 73 bd 22 7d 43 bd
       -0.03221918 -0.037983254 -0.05954782 -0.047726758
000180 2a 0c 91 bc 4f c1 0f 3d ef 1e 6b bd d4 3c 4e bc
       -0.017705996 0.035096463 -0.057402547 -0.012587745
000190 ad e1 20 3d c3 5c 68 bd b9 f1 67 3c 0d d3 b8 bc
       0.03927772 -0.05672909 0.014156752 -0.022561574
0001a0 4a aa 54 bd 99 00 95 3c 3d 30 66 3c 83 b8 77 3c
       -0.051920213 0.018188762 0.014049587 0.015119675
0001b0 ea c2 19 3d c7 e0 e9 3c 61 e9 c4 3b 9e b0 82 bd
       0.0375394 0.028549565 0.0060092662 -0.06381343
0001c0 9b 14 28 bd e3 ab 81 bd 80 f7 02 3c fd c9 3a bd
       -0.041035276 -0.06331613 0.007993579 -0.045602787
0001d0 df f0 45 bd cd f7 67 bc ae 4d 39 bd e1 ad 00 bd
       -0.048325416 -0.014158201 -0.045240097 -0.031415824
0001e0 2e 0e 38 3d 7a 45 3a bd 57 c2 d9 bc bc e5 72 bd
       0.044935398 -0.045476414 -0.026581926 -0.059301123
0001f0 2c 9f 7f bd 31 ff b8 3b 79 f4 71 bc db e9 1d 3d
       -0.062407658 0.0056456556 -0.0147677595 0.0385531
000200 e1 ad bf 3c 6c aa 20 3d 85 92 28 bb 6d b3 31 3d
       0.023398342 0.039225027 -0.0025722098 0.043384004
000210 70 34 5d bd 0a b5 34 3c 1c 77 81 bd 73 89 25 3d
       -0.054005086 0.011029491 -0.063215464 0.040414285
000220 33 cc 92 3c b7 8d 8f bc 25 93 c0 3c 42 15 40 3d
       0.017919635 -0.01752363 0.023507664 0.046895273
000230 09 37 01 bc b2 1d 4f 3c 68 e4 40 bb 87 23 84 bd
       -0.007886657 0.012641357 -0.0029433016 -0.06452089
000240 b2 d2 12 bd ac 4e 86 bd e6 12 17 bb 7a a8 01 bd
       -0.035845466 -0.06557974 -0.0023052036 -0.031654812
000250 42 cb e0 3b 48 3d b9 bc af e4 31 bd cb 34 1d 3d
       0.0068601677 -0.022612229 -0.04343098 0.038380425
000260 b1 3a 30 3d d9 3e 72 3b 52 28 1d bd 62 17 82 bd
       0.043024722 0.003696373 -0.03836853 -0.06352116
000270 a5 be 6f bd c3 66 2c 3d 1c 3c dd 3c 80 93 fd 3c
       -0.058531422 0.04209019 0.027006201 0.030954123
000280 68 f1 2b bd ae 30 84 bb 51 7f 74 bd a1 f5 a1 bc
       -0.04197827 -0.0040341234 -0.05969173 -0.019770445
000290 94 7e 8a bc 98 82 40 3d 03 a6 af 3b b3 ec 6d bd
       -0.01690606 0.046999544 0.0053603663 -0.058087062
0002a0 30 ae a1 3b cc 0f dd bc 87 28 00 3d 3f 3d 55 bd
       0.004934095 -0.026985072 0.03128865 -0.052060362
0002b0 a4 2f 5c bd b2 39 6c bb 45 cd 41 3d a7 3a 8b 3c
       -0.05375637 -0.0036045131 0.0473149 0.016995741
0002c0 f0 ca c1 3b 98 a2 de bb f6 ff 3d bc 0e 0b d6 bc
       0.0059140846 -0.006794285 -0.01159667 -0.026128318
0002d0 71 6f a4 bb c3 94 81 bc 22 31 c5 bc b8 1b 6c bd
       -0.0050181677 -0.015818005 -0.02407128 -0.057643622
0002e0 f3 ee 46 bd f1 45 b1 bc 26 a8 8a 3b 04 3d 57 bd
       -0.048567723 -0.021639796 0.0042314706 -0.052548423
0002f0 61 17 f0 bb 25 bd 52 bd da 73 fb 3c 57 a4 03 bd
       -0.0073270057 -0.051449914 0.03069489 -0.03213915
000300 69 84 1f 3d 17 1a 33 3d 19 d0 5f bd a8 dd 0a 3d
       0.038944636 0.043726053 -0.054641817 0.033902794
000310 e4 bf 2c bc 1e 74 2e bd 18 dc 64 bd 6a 78 2d bd
       -0.010543797 -0.042591207 -0.05587396 -0.042351164
000320 0b 49 f0 bb 9a af 3d 3d c1 a6 5e bb a1 dd 75 bd
       -0.007332926 0.046310045 -0.0033973905 -0.060025815
000330 6f 14 52 bd fb 34 e0 bc bd 29 93 3b 88 ed 27 bd
       -0.05128902 -0.027369013 0.0044910596 -0.04099801
000340 24 ca ce bc b9 24 a4 bc 41 0f e1 ba 45 91 0c bc
       -0.025242873 -0.020037042 -0.0017170684 -0.008579557
000350 5d ea 03 3d 52 bf 41 bd d7 87 3e bd ea a9 63 bd
       0.032205928 -0.047301598 -0.046516266 -0.055581965
000360 a5 06 59 bd ad cd 32 bd 02 5e e0 3c 93 0e 3d bd
       -0.052984852 -0.04365318 0.027388576 -0.046156477
000370 4d 85 33 3d c4 4f 79 bd c5 49 80 bd 1d 87 6e bc
       0.043828297 -0.060867086 -0.062640704 -0.014558581
000380 11 42 35 3d dd 8a 49 bc f7 c4 16 3d cb 33 36 bd
       0.04425246 -0.012301174 0.036808934 -0.044482987
000390 16 49 40 3c 5c f7 d3 bc 47 47 13 bd 8c 34 2f 3c
       0.011736175 -0.025874786 -0.035956647 0.0106936805
0003a0 03 dc bf bc e6 25 4a 3d 82 64 65 3c df 74 cc 3c
       -0.02342034 0.04935255 0.014001014 0.024958072
0003b0 48 05 16 bd f3 26 f8 bc b2 d7 9f bb 0a 5a 9b 3c
       -0.03662613 -0.03029201 -0.004878008 0.018963832
0003c0 2c 09 ce bb 03 ae 0f bd 1c 85 08 3c 78 e4 8a 3c
       -0.0062877145 -0.03507806 0.008332517 0.016954646
0003d0 c0 60 86 3c 27 0f 5a 3c ec 3b 54 3d 96 ec 13 bd
       0.016403556 0.013309277 0.05181496 -0.036114298
0003e0 0d c8 51 3d 35 ac df 3c f2 9f e1 bc d5 62 58 3d
       0.051216174 0.027303794 -0.027542088 0.05282863
0003f0 f2 c2 f7 3b fc a1 ee bb 71 82 2c bd 5d a6 97 3c
       0.007561081 -0.0072824936 -0.042116586 0.018511945

conv3.bias f4 [64]
000000 2d da 1b bc eb 1d 29 3d 46 20 20 bd 82 37 89 3c
       -0.009512466 0.041288298 -0.03909328 0.016750101
000010 2e 28 c7 bd 41 a1 60 3c d6 61 92 3c e2 bf 38 bc
       -0.097244605 0.013710321 0.017868917 -0.011276217
000020 d6 e7 97 3b 4c ad 1d bd fa 3b 15 3d e6 75 a5 bc
       0.0046357913 -0.038495347 0.03643415 -0.02019782
000030 c6 70 ec 3c d3 61 a0 3c 5a aa 94 bd 98 f0 71 bd
       0.028862368 0.019577896 -0.072590545 -0.05906734
000040 47 5f 62 3c 54 06 39 3d a7 61 2f 3c 96 1f 1e 3d
       0.013816661 0.04517205 0.0107044345 0.03860434
000050 d1 9a 06 3c c6 b3 25 bd 9c a4 89 3c d3 1c bd bb
       0.008215622 -0.04045465 0.016802125 -0.0057712584
000060 94 e3 66 bd f4 e8 15 bc fe e7 4f 3d d6 8a 88 bc
       -0.05636938 -0.009149779 0.050758354 -0.016667765
000070 51 8c 40 bd 20 07 f2 3b e6 86 9e 3c 93 b5 4e bd
       -0.047008816 0.0073861033 0.019351434 -0.05046613
000080 bd bf 27 bd be 66 d7 3c 00 9a f7 bb 66 a3 8f 3c
       -0.04095434 0.026294108 -0.0075562 0.01753397
000090 94 fb 95 bc f5 7e dd 3b 71 7d 89 3b 88 91 4c bc
       -0.018308438 0.006759519 0.004195862 -0.012485869
0000a0 38 54 62 3d ff 38 2a 3d 0d 07 48 bd 3e ae 20 bd
       0.0552561 0.041558262 -0.04883485 -0.03922867
0000b0 ca 2f 17 ba b9 57 39 bd 47 31 e3 3c 8c b1 c4 3c
       -0.0005767314 -0.045249674 0.027733458 0.024010442
0000c0 38 92 1d bd b2 9c 32 3d 63 1a bc bc c4 db 68 3d
       -0.038469523 0.043606468 -0.0229618 0.05685021
0000d0 e4 23 e5 bc ba d3 ac 3b e7 c3 66 bd 8f 91 d8 3b
       -0.027971216 0.005274263 -0.05633917 0.006609149
0000e0 9a d1 1a 3d 4f 29 d6 3b 35 83 e9 bc 1c 5c 3c bd
       0.037797548 0.006535686 -0.028504947 -0.04598628
0000f0 5b bb 9b 3c 86 ef ac 3c 4c 98 af 3c de d2 34 bc
       0.019010236 0.021110307 0.021434925 -0.011036603
