geological_decoding.pt (torch, 43863 bytes, 6 tensors)

deconv1.weight f4 [64, 32, 2, 2]
0.022074638 0.08668936 0.024937905 -0.06736787 -0.016404092 -0.065869555 -0.052987006 -0.037897617
-0.0015366242 0.05351213 -0.07326888 -0.014021785 0.087150946 -0.023939157 0.078075215 0.052502748
0.010709474 -0.016173823 -0.07254998 0.08369407 -0.031615898 0.017703164 0.04228704 -0.058708027
-0.01728388 -0.078955226 0.02557597 -0.08192326 0.069101736 0.048927058 0.07600649 -0.039238513
0.038312532 -0.0024486613 -0.061638452 0.07184838 -0.024850124 -0.0814556 0.043388948 -0.084827855
-0.060634013 0.030859176 -0.033449337 0.045582388 0.05622986 -0.021403149 -0.02334292 -0.082102716
-0.055605233 -0.073990494 -0.025446337 -0.08020387 -0.059273206 -0.023327904 -0.06722576 -0.031208344
-0.015628811 -0.06535162 -0.0012775519 0.02505384 -0.045115888 -0.016566336 0.03303298 -0.06921225
-0.06365201 0.07095319 0.01773578 0.008340851 -0.031518273 0.0499097 0.044398353 0.07212368
0.053169962 0.03323342 0.075993255 -0.011019707 -0.06479529 -0.041271728 -0.026625708 0.079463914
-0.065429255 -0.08463248 -0.01877265 -0.090245835 0.0143608255 0.02884731 -0.005853505 0.014167995
-0.03816657 0.048016135 -0.08586462 0.05803561 -0.029841417 -0.020075623 -0.067534626 -0.08060242
-0.0033470066 0.05387738 0.06657135 0.012270159 -0.017548954 0.06213524 0.052666187 0.007232082
-0.013415875 -0.040695857 0.01794944 0.057890773 -0.0130224535 -0.0247887 -0.05876657 -0.036501493
0.038995687 -0.062344395 -0.030344874 0.029050937 0.0589039 -0.024486247 -0.004821849 -0.062006056
-0.07619881 0.034627967 0.02117429 0.023221146 -0.08331855 0.076106064 -0.040635727 0.018523032
-0.06941562 0.066538475 0.020070888 0.057850935 0.0795887 -0.027613785 0.02505967 -0.057008445
0.09243921 0.108645454 0.048293117 -0.0947365 0.03330546 0.05548371 0.073556855 0.081851944
0.08815462 0.047190506 0.011279599 0.07544879 0.028321423 0.007881933 -0.07579594 -0.028858464
0.069626115 0.0013901972 -0.06586781 0.09561683 -0.07863521 -0.03362203 -0.023083797 -0.02594068
-0.09230203 -0.0009663769 0.045261487 -0.009892377 -0.0040506846 0.050551202 -0.09649085 -0.09600291
-0.052838404 -0.005666101 -0.024010537 -0.03673707 0.009529343 0.102539666 -0.054333497 -0.056552522
0.036813483 -0.0056563886 -0.045926463 -0.09264098 0.014441486 -0.062292337 0.02094448 0.059952494
-0.016231338 -0.08965182 -0.08068632 -0.08952914 -0.00095883466 0.08413484 -0.05157941 0.08973566
-0.027281238 0.08506832 -0.040599152 -0.027168177 0.05391849 -0.016167676 -0.11473375 0.0015194332
-0.06429813 -0.06356233 -0.07378273 -0.073833086 0.056729008 -0.020563371 0.06454896 -0.014889577
-0.08429749 -0.08344277 -0.04605784 -0.0824856 0.083478294 0.010161046 -0.048895743 0.116997935
0.014567844 -0.0106049 0.047136165 -0.020443944 -0.070270844 0.010551254 -0.08885196 0.06998167
0.059419237 0.04968583 -0.051904067 -0.018128073 0.10520734 0.04577294 -0.039884936 0.05243716
-0.06187656 -0.006610725 0.05830421 -0.07928892 0.011498039 0.06568954 -0.038489945 0.13005868
-0.022885017 -0.021928398 0.04917917 0.089602314 0.022047857 0.071344785 -0.0587573 -0.034938373
0.07763526 0.08226502 0.009623535 0.053659607 0.056715634 -0.05000126 -0.018397268 0.029699352
00000000: dfd5 b43c 318a b13d 944a cc3c 2af8 89bd
00000010: e061 86bc 9ee6 86bd e708 59bd 883a 1bbd
00000020: 8d68 c9ba 892f 5b3d ff0d 96bd a1bb 65bc
00000030: 327c b23d 0d1c c4bc e6e5 9f3d 1f0d 573d
00000040: ca76 2f3c f77e 84bc 1595 94bd cc67 ab3d
00000050: ac7f 01bd 3a06 913c 2d35 2d3d d477 70bd
00000060: ec96 8dbc 47b3 a1bd b284 d13c 62c7 a7bd
00000070: 3685 8d3d bd67 483d 4aa9 9b3d 90b8 20bd
00000080: 9aed 1c3d b879 20bb 9a78 7cbd 3e25 933d
00000090: 7d92 cbbc 32d2 a6bd 9cb8 313d 3aba adbd
000000a0: 5f5b 78bd 62cc fc3c 2c02 09bd 99b4 3a3d
000000b0: 4851 663d a855 afbc a739 bfbc 7825 a8bd
000000c0: 50c2 63bd 5488 97bd d674 d0bc ed41 a4bd
000000d0: 76c8 72bd 291a bfbc a9ad 89bd a4a8 ffbc
000000e0: fe07 80bc 12d7 85bd 8773 a7ba b63d cd3c
000000f0: 70cb 38bd 20b6 87bc 974d 073d 27bf 8dbd
00000100: fc5b 82bd e84f 913d a04a 913c 11a8 083c
00000110: 4e19 01bd 1d6e 4c3d 0cdb 353d 94b5 933d
00000120: bfc8 593d c41f 083d 5aa2 9b3d 008c 34bc
00000130: 65b3 84bd 8b0c 29bd 281e dabc fabd a23d
00000140: c6ff 85bd cb53 adbd 1ac9 99bc cfd2 b8bd
00000150: ab49 6b3c 3251 ec3c c2ce bfbb e120 683c
00000160: 8d54 1cbd 91ac 443d cad9 afbd bfb6 6d3d
00000170: fd75 f4bc a275 a4bc 984f 8abd e212 a5bd
00000180: 7459 5bbb 87ae 5c3d 8f56 883d c708 493c
00000190: d3c2 8fbc 8581 7e3d 80b8 573d 1afb ec3b
000001a0: 42ce 5bbc b3b0 26bd b40a 933c e01e 6d3d
000001b0: 215c 55bc ac11 cbbc 37b5 70bd 9782 15bd
000001c0: f1b9 1f3d d65c 7fbd d095 f8bc 3bfc ed3c
000001d0: 3745 713d 6297 c8bc 9a00 9ebb 10fa 7dbd
000001e0: 1f0e 9cbd 0ed6 0d3d b475 ad3c 463a be3c
000001f0: eaa2 aabd 7fdd 9b3d a671 26bd 9dbd 973c
00000200: c729 8ebd 5345 883d b46b a43c 1af5 6c3d
00000210: 66ff a23d 4e36 e2bc f049 cd3c b081 69bd
00000220: c550 bd3d 8281 de3d 01cf 453d 3605 c2bd
00000230: 4e6b 083d e342 633d faa4 963d fea1 a73d
00000240: 698a b43d d54a 413d 11ce 383c e584 9a3d
00000250: 5402 e83c 3923 013c e73a 9bbd 9668 ecbc
00000260: 2398 8e3d 4737 b63a b4e5 86bd c2d2 c33d
00000270: 7f0b a1bd 41b7 09bd 3b1a bdbc 8d81 d4bc
00000280: d908 bdbd 7554 7dba 1c64 393d a313 22bc
00000290: 9bbb 84bb c70e 4f3d ff9c c5bd 2c9d c4bd
000002a0: 156d 58bd b3aa b9bb bfb1 c4bc 9c79 16bd
000002b0: f620 1c3c 5100 d23d cd8c 5ebd 9ea3 67bd
000002c0: bcc9 163d 3a59 b9bb 631d 3cbd 8eba bdbd
000002d0: fc9b 6c3c 4026 7fbd c293 ab3c bf90 753d
000002e0: 95f7 84bc 609b b7bd df3e a5bd 0e5b b7bd
000002f0: 4e5a 7bba e34e ac3d ee44 53bd 54c7 b73d
00000300: e77c dfbc 4d38 ae3d 4c4b 26bd cc8f debc
00000310: a2d9 5c3d 1372 84bc 87f9 eabd b827 c73a
00000320: bdae 83bd f82c 82bd 661b 97bd cd35 97bd
00000330: ad5c 683d 8474 a8bc 3f32 843d 6af3 73bc
00000340: 2aa4 acbd 0be4 aabd 25a7 3cbd 36ee a8bd
00000350: abf6 aa3d 847a 263c e746 48bd 9d9c ef3d
00000360: f7ad 6e3c 2dc0 2dbc da11 413d 0f7a a7bc
00000370: 29ea 8fbd 2bdf 2c3c 04f8 b5bd 8d52 8f3d
00000380: 9661 733d 5e83 4b3d 5c99 54bd 5381 94bc
00000390: f276 d73d 687c 3b3d 635e 23bd 59c8 563d
000003a0: 4772 7dbd c89e d8bb 65d0 6e3d 3b62 a2bd
000003b0: 4562 3c3c 3d88 863d a2a7 1dbd 1a2e 053e
000003c0: 5c79 bbbc 2fa3 b3bc 1970 493d 6b81 b73d
000003d0: b59d b43c 371d 923d 7fab 70bd 8a1b 0fbd
000003e0: 3cff 9e3d 907a a83d 08ac 1d3c 2dca 5b3d
000003f0: a74e 683d 1fce 4cbd deb5 96bc 0e4c f33c

deconv1.bias f4 [32]
-0.008097363 -0.056412894 -0.04654531 0.088233046 0.015184717 -0.016995078 0.004642307 0.0031189302
0.03129423 -0.001283047 0.06594073 -0.04747721 -0.11656351 0.08294948 -0.07194241 -0.024657127
0.0017866407 -0.013418533 -0.018782957 -0.031060584 0.019410789 -0.05581893 0.00199985 0.049815148
0.03771865 -0.010474294 -0.07698523 0.048954528 0.032158174 -0.10872302 0.058117867 -0.005411671
00000000: cdaa 04bc 3511 67bd 4ca6 3ebd 87b3 b43d
00000010: 52c9 783c 4339 8bbc 7e1e 983b f766 4c3b
00000020: 612e 003d ea2b a8ba ef0b 873d 7777 42bd
00000030: d9b8 eebd 6be1 a93d 8b56 93bd befd c9bc
00000040: b72d ea3a 68d9 5bbc b7de 99bc c472 febc
00000050: 6003 9f3c 64a2 64bd ea0f 033b f80a 4c3d
00000060: df7e 1a3d 609c 2bbc 6faa 9dbd 8b84 483d
00000070: 4ab8 033d 2daa debd 000d 6e3d 6354 b1bb

deconv2.weight f4 [32, 16, 2, 2]
-0.023879068 -0.07683097 0.02889637 -0.01871498 -0.07534555 0.06816748 -0.07513979 -0.00871452
0.020916391 0.07803415 0.03531705 0.13191561 0.10914511 0.046854466 -0.06540931 -0.022141743
0.015036834 0.120006286 0.049080428 0.083421595 -0.016241487 -0.04762816 0.011990976 0.036574017
0.07069542 -0.03282458 -0.025526483 0.04390079 -0.107951604 -0.10898067 0.044378337 -0.02313575
0.0039386144 -0.042899765 0.014901068 -0.033778474 -0.097008295 0.02033252 0.06980115 0.04069258
0.052332733 -0.029028317 0.09181105 -0.09283971 -0.004040468 0.08240039 -0.060101017 0.030936832
0.050823763 0.010870474 0.08962587 0.09699085 0.14568879 0.040362228 -0.061235882 0.056482177
0.043110546 -0.07589158 0.10519926 -0.09541488 -0.0012341719 0.09614312 0.06743761 0.09642965
0.06929584 -0.04828435 0.05850254 -0.053188898 -0.07980211 -0.11790267 0.06441326 -0.037429146
0.09739955 0.12713459 0.11623014 0.09039974 0.079532765 0.009252151 0.027613033 0.117030114
0.085860476 0.033301085 0.12864842 0.07599007 0.018044747 0.06337861 -0.0671503 -0.014550562
0.0026869087 0.04612239 -0.07643873 -0.088216215 0.10892842 -0.10641543 0.02462167 -0.10059234
0.0640374 0.052255623 0.111828335 0.10347161 -0.0027886478 0.013450244 -0.11363874 -0.0142104905
0.024346787 0.06502754 0.118992254 -0.11469802 0.073681705 -0.031616066 0.09452946 -0.073015
0.017517446 -0.055427067 0.04409835 0.029946446 0.048951108 -0.08923859 0.007049617 0.034163374
0.14929405 0.021320235 -0.0069300076 -0.058242235 0.006138876 -0.09437945 0.06119152 0.06513033
0.12878753 0.0742547 0.1356082 -0.054293018 0.05269954 0.10613524 -0.068483055 0.039507218
0.11591892 -0.06884507 0.0039804904 -0.003323694 0.10210577 -0.11817055 -0.047212385 0.09774781
0.13875324 0.11723697 0.15245162 -0.023980726 -0.059689622 0.042507187 -0.0053386753 -0.06984716
0.105797336 0.11918328 0.027227702 0.05450577 0.08745483 0.061507624 0.052338507 -0.07397863
0.12698533 0.08249505 -0.022238577 0.108232185 -0.1017528 0.07480104 -0.007786854 0.025802486
-0.009116523 0.03912401 0.0040300125 -0.06772512 0.1315265 0.13130099 -0.078369156 0.09126129
0.086393125 0.009554126 0.09043917 0.1105018 -0.03504965 -0.11077438 -0.07974896 0.12207126
0.060802307 0.09173877 0.07477474 -0.043833327 -0.021883382 -0.028197952 0.06109876 -0.081969604
-0.07042393 0.06255968 -0.046982463 0.0020853756 0.08246058 -0.077542216 -0.038742695 0.027672939
0.01827921 0.1155333 0.0807368 0.027690237 -0.09781511 0.111277945 0.007530307 -0.08266545
-0.05221318 0.06731851 0.120074764 0.09536 0.11242916 0.027774004 -0.01659934 -0.059926473
0.06946081 0.12864009 0.0025489174 -0.104804896 0.08845612 0.07023902 -0.014421806 -0.11746617
-0.06913442 0.056350663 0.017607635 0.012017295 0.06746224 -0.05389625 0.087279 0.0032155272
-0.03872665 0.019061387 0.11739067 0.032983653 0.0442372 0.084756196 0.12468521 0.031463876
-0.014004576 0.13211758 0.020597683 0.030573212 -0.045756843 -0.05794422 0.051920317 -0.0712498
-0.0052800295 -0.025213018 -0.00069443183 0.10219916 -0.13209608 0.009091961 0.09467551 0.06776377
00000000: 099e c3bc 8e59 9dbd 15b8 ec3c 2850 99bc
00000010: c54e 9abd 649b 8b3d e4e2 99bd 59c7 0ebc
00000020: da58 ab3c 5ed0 9f3d 9ca8 103d e314 073e
00000030: 7987 df3d 78ea 3f3d 51f5 85bd 9a62 b5bc
00000040: 0e5d 763c dbc5 f53d 8f08 493d f1d8 aa3d
00000050: de0c 85bc bf15 43bd cc75 443c a3ce 153d
00000060: c3c8 903d 1173 06bd ea1c d1bc 51d1 333d
00000070: bb15 ddbd 4231 dfbd 0fc6 353d 2f87 bdbc
00000080: 7e0f 813b aab7 2fbd 9c23 743c 4c5b 0abd
00000090: 49ac c6bd 6390 a63c e8f3 8e3d 43ad 263d
000000a0: d95a 563d cbcc edbc 6f07 bc3d bf22 bebd
000000b0: e765 84bb 89c1 a83d 7c2c 76bd 3d6f fd3c
000000c0: 942c 503d 131a 323c c58d b73d 24a3 c63d
000000d0: 712f 153e dd52 253d 7ad2 7abd db59 673d
000000e0: af94 303d 0b6d 9bbd b672 d73d e068 c3bd
000000f0: f0c3 a1ba afe6 c43d bb1c 8a3d e97c c53d
00000100: faea 8d3d d0c5 45bd 5ca0 6f3d 9adc 59bd
00000110: 4a6f a3bd f476 f1bd 19eb 833d 4e4f 19bd
00000120: 6a79 c73d 922f 023e 110a ee3d 8023 b93d
00000130: 13e2 a23d 5596 173c ba34 e23c 7cad ef3d
00000140: 9ed7 af3d b866 083d 69bc 033e afa0 9b3d
00000150: 94d2 933c a5cc 813d 1986 89bd 7b65 6ebc
00000160: d916 303b d5ea 3c3d e98b 9cbd b4aa b4bd
00000170: dd15 df3d 55f0 d9bd 62b3 c93c 5b03 cebd
00000180: 0a26 833d fe09 563d 4106 e53d ece8 d33d
00000190: bfc1 36bb 6a5e 5c3c 6dbb e8bd 1ed3 68bc
000001a0: ea72 c73c 292d 853d 36b2 f33d cce6 eabd
000001b0: 6fe6 963d d97f 01bd a998 c13d e388 95bd
000001c0: bf80 8f3c 7e07 63bd 79a0 343d 4052 f53c
000001d0: f580 483d b9c2 b6bd 7900 e73b e5ee 0b3d
000001e0: 8ae0 183e c6a7 ae3c 1e15 e3bb 698f 6ebd
000001f0: a028 c93b 034a c1bd f6a3 7a3d 0d63 853d
00000200: e1e0 033e d912 983d e0dc 0a3e 5b62 5ebd
00000210: 79db 573d 6f5d d93d d840 8cbd 52d2 213d
00000220: e666 ed3d a5fe 8cbd c66e 823b 55d2 59bb
00000230: d41c d13d 6703 f2bd c661 41bd 0130 c83d
00000240: 5415 0e3e f019 f03d 471c 1c3e 3a73 c4bc
00000250: 1b7d 74bd 041c 2e3d 0ef0 aebb 070c 8fbd
00000260: 46ac d83d 5d16 f43d a10c df3c 7141 5f3d
00000270: 851b b33d 6bef 7b3d e760 563d 1c82 97bd
00000280: 7108 023e 2af3 a83d ad2d b6bc d6a8 dd3d
00000290: c663 d0bd 4a31 993d de28 ffbb bc5f d33c
000002a0: 785d 15bc 7f40 203d 320e 843b 78b3 8abd
000002b0: e2ae 063e c473 063e 0280 a0bd 33e7 ba3d
000002c0: e1ee b03d e988 1c3c 2c38 b93d c54e e23d
000002d0: 3990 0fbd aedd e2bd 6c53 a3bd 7f00 fa3d
000002e0: d70b 793d 89e1 bb3d 8023 993d 938a 33bd
000002f0: c744 b3bc 64ff e6bc b242 7a3d aedf a7bd
00000300: 6c3a 90bd 4a1f 803d af70 40bd ccaa 083b
00000310: 18e1 a83d 74ce 9ebd a9b0 1ebd 5cb2 e23c
00000320: 48be 953c b99c ec3d 5659 a53d a3d6 e23c
00000330: 4a53 c8bd b1e5 e33d cbc0 f63b 814c a9bd
00000340: 7ddd 55bd 49de 893d c2e9 f53d 1b4c c33d
00000350: 4241 e63d 4f86 e33c 57fb 87bc 7675 75bd
00000360: 7841 8e3d 3aba 033e bd0b 273b f3a3 d6bd
00000370: 7b28 b53d 7ad9 8f3d 7049 6cbc 1a92 f0bd
00000380: 5996 8dbd f4cf 663d e33d 903c 30e4 443c
00000390: a529 8a3d 50c2 5cbd 55bf b23d 98bb 523b
000003a0: d69f 1ebd a026 9c3c 856a f03d de19 073d
000003b0: 1132 353d a894 ad3d f65a ff3d 44e0 003d
000003c0: 7373 65bc d549 073e 79bc a83c ac74 fa3c
000003d0: 876b 3bbd eb56 6dbd 66aa 543d 6aeb 91bd
000003e0: 1904 adbb 888b cebc 880a 36ba cb4d d13d
000003f0: 3244 07be 73f6 143c 3ce5 c13d bbc7 8a3d

deconv2.bias f4 [16]
0.08260518 0.016273666 0.059998367 -0.063462414 0.1173578 0.023751596 0.064856105 0.0053796424
-0.019587403 0.043502137 -0.097416736 0.016485848 0.09301462 -0.025832847 -0.02203708 0.015529888
00000000: e82c a93d 5a50 853c d9c0 753d 95f8 81bd
00000010: 4959 f03d b592 c23c 47d3 843d b647 b03b
00000020: c375 a0bc 4c2f 323d 6d82 c7bd 540d 873c
00000030: 737e be3d 689f d3bc 1b87 b4bc 1271 7e3c

deconv3.weight f4 [16, 3, 2, 2]
-0.15850838 0.11763135 0.1197155 0.25014582 -0.091724366 -0.17983608 -0.058837503 0.1424451
-0.015722834 0.050445803 0.17596218 0.080037385 0.16960001 -0.1723315 -0.05751106 -0.03719962
-0.15470046 0.12595674 0.05177074 0.2898931 0.096731156 0.23273607 0.24898931 0.27715218
0.015732786 0.2603585 0.24343143 0.052790597 0.276738 0.1663703 -0.10802839 0.094175525
0.27200887 0.08247101 -0.038897216 -0.06659039 0.08341053 -0.030164396 -0.1590963 -0.29326752
0.06182429 -0.036789395 -0.02381805 -0.1905695 0.067394756 -0.19452389 0.12217528 -0.23476505
0.05566601 -0.10244448 -0.04541371 0.10863643 0.13516846 -0.06224473 0.27384683 -0.19914071
0.24891403 0.26711324 0.11326238 0.15389383 -0.07379996 0.2689641 0.18309605 -0.25287047
-0.11563362 0.3143304 -0.21157862 0.113622144 0.25163698 0.1307097 0.052917723 -0.19489181
0.13591304 -0.06206787 0.1925044 -0.02686822 -0.18298802 -0.08065319 -0.1312564 0.28764474
0.29568005 0.04169809 -0.006099575 0.082512125 0.1941008 -0.20780851 -0.09529875 -0.041744765
0.12569827 0.050691057 0.37123558 -0.18749294 0.2904645 -0.23389283 0.21628335 0.14816913
0.40090507 0.06803798 0.17928785 0.21223915 -0.08849686 -0.076826766 0.17442884 -0.039410148
-0.023852447 -0.08687526 -0.096689224 0.017101353 0.12601274 -0.08319138 -0.049790826 0.021626562
-0.15234599 0.24909925 -0.12564495 -0.118763685 -0.17756453 0.21583582 0.16809338 0.019423172
0.30687866 -0.15454595 0.1650211 -0.18534966 -0.17809491 -0.0050645135 -0.101947635 -0.17726766
-0.13001198 -0.004706823 0.03088248 -0.030659068 0.19181737 0.0906416 0.23509406 0.19280438
0.12337996 0.26035166 0.2754956 0.07449661 -0.13980028 0.16947937 0.2527452 0.31487885
0.09214123 0.22836646 -0.14408441 0.05612303 0.22450724 0.24246329 0.1649427 0.14586885
0.059052635 0.100984335 0.16451956 0.053580042 -0.41689435 0.15079942 0.053157583 -0.13430817
0.059250932 -0.16811235 0.09066404 -0.16997837 0.1965346 0.10544468 0.01537018 0.062427737
0.1631166 0.04361801 0.099766664 -0.032486636 -0.02221024 0.19993506 0.08754805 0.24754584
-0.09679206 0.2444802 0.022838762 0.20157214 -0.18916708 -0.15468915 0.1800824 -0.037431818
-0.16848195 -0.08882304 -0.049447924 0.18061666 -0.058020465 -0.1395424 0.1744345 0.19409856
00000000: 0550 22be b5e8 f03d 662d f53d 1d13 803e
00000010: fcd9 bbbd f326 38be 98ff 70bd 21dd 113e
00000020: 2ccd 80bc 42a0 4e3d 6e2f 343e a4ea a33d
00000030: a0ab 2d3e ab77 30be b890 6bbd a15e 18bd
00000040: cc69 1ebe cefa 003e 8e0d 543d de6c 943e
00000050: fc1a c63d 5d52 6e3e 0ef7 7e3e e4e6 8d3e
00000060: 0be2 803c b64d 853e 1746 793e f43a 583d
00000070: 9ab0 8d3e fa5c 2a3e fd3d ddbd 19df c03d
00000080: bf44 8b3e 90e6 a83d b052 1fbd 8b60 88bd
00000090: 24d3 aa3d 531b f7bc 24ea 22be 2927 96be
000000a0: 773b 7d3d 7ab0 16bd 121e c3bc a724 43be
000000b0: 4306 8a3d 4531 47be 0837 fa3d 4066 70be
000000c0: 0b02 643d 69ce d1bd ba03 3abd c77c de3d
000000d0: 9a69 0a3e 54f4 7ebd a735 8c3e 8beb 4bbe
000000e0: 52e3 7e3e 11c3 883e 1bf6 e73d 5896 1d3e
000000f0: 6f24 97bd aab5 893e 887d 3b3e 3d78 81be
00000100: 52d1 ecbd eaef a03e 11a8 58be bab2 e83d
00000110: 90d6 803e c3d8 053e 41c0 583d b891 47be
00000120: ca2c 0b3e e13a 7ebd e01f 453e be1a dcbc
00000130: 3661 3bbe 802d a5bd 1468 06be 2c46 933e
00000140: 6063 973e 9ecb 2a3d f2de c7bb 1efc a83d
00000150: 5cc2 463e c1cb 54be fe2b c3bd 8ffc 2abd
00000160: 0cb7 003e 6da1 4f3d 9712 be3e 26fe 3fbe
00000170: c3b7 943e 9a81 6fbe 6279 5d3e a6b9 173e
00000180: 6e43 cd3e 7f57 8b3d 3c97 373e 3855 593e
00000190: d73d b5bd 5a57 9dbd 799d 323e 896c 21bd
000001a0: 3566 c3bc a8eb b1bd 0005 c6bd 2318 8c3c
000001b0: 7c09 013e 3e60 aabd 77f1 4bbd 302a b13c
000001c0: 9600 1cbe e013 7f3e 12a9 00be 603a f3bd
000001d0: 7ad3 35be 1104 5d3e ac20 2c3e 581d 9f3c
000001e0: 331f 9d3e 4b41 1ebe 4bfb 283e 4dcc 3dbe
000001f0: 835e 36be 38f4 a5bb ecc9 d0bd a785 35be
00000200: dc21 05be b13b 9abb 41fd fc3c ba28 fbbc
00000210: c66b 443e 4ea2 b93d 7fbc 703e 836e 453e
00000220: a2ae fc3d d04c 853e c20d 8d3e ae91 983d
00000230: ce27 0fbe 008c 2d3e d267 813e cd37 a13e
00000240: 8bb4 bc3d e6d8 693e dd8a 13be 43e1 653d
00000250: 3ae5 653e 4c48 783e bde6 283e a55e 153e
00000260: 2de1 713d e0d0 ce3d d177 283e bf76 5b3d
00000270: 2d73 d5be 2a6b 1a3e c4bb 593d 1588 09be
00000280: 1bb1 723d a525 2cbe 11ae b93d cf0e 2ebe
00000290: 5e40 493e 61f3 d73d 35d3 7b3c 3ab4 7f3d
000002a0: 0a08 273e cca8 323d 7752 cc3d b510 05bd
000002b0: 40f2 b5bc c7bb 4c3e 644c b33d a87c 7d3e
000002c0: ea3a c6bd 0459 7a3e 5b18 bb3c ed68 4e3e
000002d0: 04b5 41be d566 1ebe 8567 383e 1b52 19bd
000002e0: 8886 2cbe dbe8 b5bd e889 4abd 93f3 383e
000002f0: dea6 6dbd 34e4 0ebe f59e 323e c6c1 463e

deconv3.bias f4 [3]
0.056009796 0.09272473 0.03426118
00000000: 876a 653d 77e6 bd3d 7355 0c3d
